{
  "format": "layers-model",
  "generatedBy": "keras v2.4.0",
  "convertedBy": "TensorFlow.js Converter v3.4.0",
  "modelTopology": {
    "keras_version": "2.4.0",
    "backend": "tensorflow",
    "model_config": {
      "class_name": "Sequential",
      "config": {
        "name": "convolutional_Bidrectional_LSTM",
        "layers": [
          {
            "class_name": "InputLayer",
            "config": {
              "batch_input_shape": [
                null,
                3,
                48,
                48,
                1
              ],
              "dtype": "float32",
              "sparse": false,
              "ragged": false,
              "name": "time_distributed_input"
            }
          },
          {
            "class_name": "TimeDistributed",
            "config": {
              "name": "time_distributed",
              "trainable": true,
              "batch_input_shape": [
                null,
                3,
                48,
                48,
                1
              ],
              "dtype": "float32",
              "layer": {
                "class_name": "Functional",
                "config": {
                  "name": "model",
                  "layers": [
                    {
                      "class_name": "InputLayer",
                      "config": {
                        "batch_input_shape": [
                          null,
                          48,
                          48,
                          1
                        ],
                        "dtype": "float32",
                        "sparse": false,
                        "ragged": false,
                        "name": "input_1"
                      },
                      "name": "input_1",
                      "inbound_nodes": []
                    },
                    {
                      "class_name": "Conv2D",
                      "config": {
                        "name": "conv2d",
                        "trainable": true,
                        "dtype": "float32",
                        "filters": 16,
                        "kernel_size": [
                          3,
                          3
                        ],
                        "strides": [
                          1,
                          1
                        ],
                        "padding": "same",
                        "data_format": "channels_last",
                        "dilation_rate": [
                          1,
                          1
                        ],
                        "groups": 1,
                        "activation": "linear",
                        "use_bias": false,
                        "kernel_initializer": {
                          "class_name": "GlorotUniform",
                          "config": {
                            "seed": null
                          }
                        },
                        "bias_initializer": {
                          "class_name": "Zeros",
                          "config": {}
                        },
                        "kernel_regularizer": {
                          "class_name": "L2",
                          "config": {
                            "l2": 9.999999747378752e-05
                          }
                        },
                        "bias_regularizer": null,
                        "activity_regularizer": null,
                        "kernel_constraint": null,
                        "bias_constraint": null
                      },
                      "name": "conv2d",
                      "inbound_nodes": [
                        [
                          [
                            "input_1",
                            0,
                            0,
                            {}
                          ]
                        ]
                      ]
                    },
                    {
                      "class_name": "BatchNormalization",
                      "config": {
                        "name": "batch_normalization",
                        "trainable": true,
                        "dtype": "float32",
                        "axis": [
                          3
                        ],
                        "momentum": 0.99,
                        "epsilon": 0.001,
                        "center": true,
                        "scale": true,
                        "beta_initializer": {
                          "class_name": "Zeros",
                          "config": {}
                        },
                        "gamma_initializer": {
                          "class_name": "Ones",
                          "config": {}
                        },
                        "moving_mean_initializer": {
                          "class_name": "Zeros",
                          "config": {}
                        },
                        "moving_variance_initializer": {
                          "class_name": "Ones",
                          "config": {}
                        },
                        "beta_regularizer": {
                          "class_name": "L2",
                          "config": {
                            "l2": 9.999999747378752e-05
                          }
                        },
                        "gamma_regularizer": {
                          "class_name": "L2",
                          "config": {
                            "l2": 9.999999747378752e-05
                          }
                        },
                        "beta_constraint": null,
                        "gamma_constraint": null
                      },
                      "name": "batch_normalization",
                      "inbound_nodes": [
                        [
                          [
                            "conv2d",
                            0,
                            0,
                            {}
                          ]
                        ]
                      ]
                    },
                    {
                      "class_name": "Activation",
                      "config": {
                        "name": "activation",
                        "trainable": true,
                        "dtype": "float32",
                        "activation": "elu"
                      },
                      "name": "activation",
                      "inbound_nodes": [
                        [
                          [
                            "batch_normalization",
                            0,
                            0,
                            {}
                          ]
                        ]
                      ]
                    },
                    {
                      "class_name": "Conv2D",
                      "config": {
                        "name": "conv2d_1",
                        "trainable": true,
                        "dtype": "float32",
                        "filters": 8,
                        "kernel_size": [
                          3,
                          3
                        ],
                        "strides": [
                          1,
                          1
                        ],
                        "padding": "same",
                        "data_format": "channels_last",
                        "dilation_rate": [
                          1,
                          1
                        ],
                        "groups": 1,
                        "activation": "linear",
                        "use_bias": false,
                        "kernel_initializer": {
                          "class_name": "GlorotUniform",
                          "config": {
                            "seed": null
                          }
                        },
                        "bias_initializer": {
                          "class_name": "Zeros",
                          "config": {}
                        },
                        "kernel_regularizer": {
                          "class_name": "L2",
                          "config": {
                            "l2": 9.999999747378752e-05
                          }
                        },
                        "bias_regularizer": null,
                        "activity_regularizer": null,
                        "kernel_constraint": null,
                        "bias_constraint": null
                      },
                      "name": "conv2d_1",
                      "inbound_nodes": [
                        [
                          [
                            "activation",
                            0,
                            0,
                            {}
                          ]
                        ]
                      ]
                    },
                    {
                      "class_name": "Dropout",
                      "config": {
                        "name": "dropout",
                        "trainable": true,
                        "dtype": "float32",
                        "rate": 0.2,
                        "noise_shape": null,
                        "seed": null
                      },
                      "name": "dropout",
                      "inbound_nodes": [
                        [
                          [
                            "conv2d_1",
                            0,
                            0,
                            {}
                          ]
                        ]
                      ]
                    },
                    {
                      "class_name": "Concatenate",
                      "config": {
                        "name": "concatenate",
                        "trainable": true,
                        "dtype": "float32",
                        "axis": -1
                      },
                      "name": "concatenate",
                      "inbound_nodes": [
                        [
                          [
                            "conv2d",
                            0,
                            0,
                            {}
                          ],
                          [
                            "dropout",
                            0,
                            0,
                            {}
                          ]
                        ]
                      ]
                    },
                    {
                      "class_name": "BatchNormalization",
                      "config": {
                        "name": "batch_normalization_1",
                        "trainable": true,
                        "dtype": "float32",
                        "axis": [
                          3
                        ],
                        "momentum": 0.99,
                        "epsilon": 0.001,
                        "center": true,
                        "scale": true,
                        "beta_initializer": {
                          "class_name": "Zeros",
                          "config": {}
                        },
                        "gamma_initializer": {
                          "class_name": "Ones",
                          "config": {}
                        },
                        "moving_mean_initializer": {
                          "class_name": "Zeros",
                          "config": {}
                        },
                        "moving_variance_initializer": {
                          "class_name": "Ones",
                          "config": {}
                        },
                        "beta_regularizer": {
                          "class_name": "L2",
                          "config": {
                            "l2": 9.999999747378752e-05
                          }
                        },
                        "gamma_regularizer": {
                          "class_name": "L2",
                          "config": {
                            "l2": 9.999999747378752e-05
                          }
                        },
                        "beta_constraint": null,
                        "gamma_constraint": null
                      },
                      "name": "batch_normalization_1",
                      "inbound_nodes": [
                        [
                          [
                            "concatenate",
                            0,
                            0,
                            {}
                          ]
                        ]
                      ]
                    },
                    {
                      "class_name": "Activation",
                      "config": {
                        "name": "activation_1",
                        "trainable": true,
                        "dtype": "float32",
                        "activation": "elu"
                      },
                      "name": "activation_1",
                      "inbound_nodes": [
                        [
                          [
                            "batch_normalization_1",
                            0,
                            0,
                            {}
                          ]
                        ]
                      ]
                    },
                    {
                      "class_name": "Conv2D",
                      "config": {
                        "name": "conv2d_2",
                        "trainable": true,
                        "dtype": "float32",
                        "filters": 8,
                        "kernel_size": [
                          3,
                          3
                        ],
                        "strides": [
                          1,
                          1
                        ],
                        "padding": "same",
                        "data_format": "channels_last",
                        "dilation_rate": [
                          1,
                          1
                        ],
                        "groups": 1,
                        "activation": "linear",
                        "use_bias": false,
                        "kernel_initializer": {
                          "class_name": "GlorotUniform",
                          "config": {
                            "seed": null
                          }
                        },
                        "bias_initializer": {
                          "class_name": "Zeros",
                          "config": {}
                        },
                        "kernel_regularizer": {
                          "class_name": "L2",
                          "config": {
                            "l2": 9.999999747378752e-05
                          }
                        },
                        "bias_regularizer": null,
                        "activity_regularizer": null,
                        "kernel_constraint": null,
                        "bias_constraint": null
                      },
                      "name": "conv2d_2",
                      "inbound_nodes": [
                        [
                          [
                            "activation_1",
                            0,
                            0,
                            {}
                          ]
                        ]
                      ]
                    },
                    {
                      "class_name": "Dropout",
                      "config": {
                        "name": "dropout_1",
                        "trainable": true,
                        "dtype": "float32",
                        "rate": 0.2,
                        "noise_shape": null,
                        "seed": null
                      },
                      "name": "dropout_1",
                      "inbound_nodes": [
                        [
                          [
                            "conv2d_2",
                            0,
                            0,
                            {}
                          ]
                        ]
                      ]
                    },
                    {
                      "class_name": "Concatenate",
                      "config": {
                        "name": "concatenate_1",
                        "trainable": true,
                        "dtype": "float32",
                        "axis": -1
                      },
                      "name": "concatenate_1",
                      "inbound_nodes": [
                        [
                          [
                            "conv2d",
                            0,
                            0,
                            {}
                          ],
                          [
                            "dropout",
                            0,
                            0,
                            {}
                          ],
                          [
                            "dropout_1",
                            0,
                            0,
                            {}
                          ]
                        ]
                      ]
                    },
                    {
                      "class_name": "BatchNormalization",
                      "config": {
                        "name": "batch_normalization_2",
                        "trainable": true,
                        "dtype": "float32",
                        "axis": [
                          3
                        ],
                        "momentum": 0.99,
                        "epsilon": 0.001,
                        "center": true,
                        "scale": true,
                        "beta_initializer": {
                          "class_name": "Zeros",
                          "config": {}
                        },
                        "gamma_initializer": {
                          "class_name": "Ones",
                          "config": {}
                        },
                        "moving_mean_initializer": {
                          "class_name": "Zeros",
                          "config": {}
                        },
                        "moving_variance_initializer": {
                          "class_name": "Ones",
                          "config": {}
                        },
                        "beta_regularizer": {
                          "class_name": "L2",
                          "config": {
                            "l2": 9.999999747378752e-05
                          }
                        },
                        "gamma_regularizer": {
                          "class_name": "L2",
                          "config": {
                            "l2": 9.999999747378752e-05
                          }
                        },
                        "beta_constraint": null,
                        "gamma_constraint": null
                      },
                      "name": "batch_normalization_2",
                      "inbound_nodes": [
                        [
                          [
                            "concatenate_1",
                            0,
                            0,
                            {}
                          ]
                        ]
                      ]
                    },
                    {
                      "class_name": "Activation",
                      "config": {
                        "name": "activation_2",
                        "trainable": true,
                        "dtype": "float32",
                        "activation": "elu"
                      },
                      "name": "activation_2",
                      "inbound_nodes": [
                        [
                          [
                            "batch_normalization_2",
                            0,
                            0,
                            {}
                          ]
                        ]
                      ]
                    },
                    {
                      "class_name": "Conv2D",
                      "config": {
                        "name": "conv2d_3",
                        "trainable": true,
                        "dtype": "float32",
                        "filters": 8,
                        "kernel_size": [
                          3,
                          3
                        ],
                        "strides": [
                          1,
                          1
                        ],
                        "padding": "same",
                        "data_format": "channels_last",
                        "dilation_rate": [
                          1,
                          1
                        ],
                        "groups": 1,
                        "activation": "linear",
                        "use_bias": false,
                        "kernel_initializer": {
                          "class_name": "GlorotUniform",
                          "config": {
                            "seed": null
                          }
                        },
                        "bias_initializer": {
                          "class_name": "Zeros",
                          "config": {}
                        },
                        "kernel_regularizer": {
                          "class_name": "L2",
                          "config": {
                            "l2": 9.999999747378752e-05
                          }
                        },
                        "bias_regularizer": null,
                        "activity_regularizer": null,
                        "kernel_constraint": null,
                        "bias_constraint": null
                      },
                      "name": "conv2d_3",
                      "inbound_nodes": [
                        [
                          [
                            "activation_2",
                            0,
                            0,
                            {}
                          ]
                        ]
                      ]
                    },
                    {
                      "class_name": "Dropout",
                      "config": {
                        "name": "dropout_2",
                        "trainable": true,
                        "dtype": "float32",
                        "rate": 0.2,
                        "noise_shape": null,
                        "seed": null
                      },
                      "name": "dropout_2",
                      "inbound_nodes": [
                        [
                          [
                            "conv2d_3",
                            0,
                            0,
                            {}
                          ]
                        ]
                      ]
                    },
                    {
                      "class_name": "Concatenate",
                      "config": {
                        "name": "concatenate_2",
                        "trainable": true,
                        "dtype": "float32",
                        "axis": -1
                      },
                      "name": "concatenate_2",
                      "inbound_nodes": [
                        [
                          [
                            "conv2d",
                            0,
                            0,
                            {}
                          ],
                          [
                            "dropout",
                            0,
                            0,
                            {}
                          ],
                          [
                            "dropout_1",
                            0,
                            0,
                            {}
                          ],
                          [
                            "dropout_2",
                            0,
                            0,
                            {}
                          ]
                        ]
                      ]
                    },
                    {
                      "class_name": "BatchNormalization",
                      "config": {
                        "name": "batch_normalization_3",
                        "trainable": true,
                        "dtype": "float32",
                        "axis": [
                          3
                        ],
                        "momentum": 0.99,
                        "epsilon": 0.001,
                        "center": true,
                        "scale": true,
                        "beta_initializer": {
                          "class_name": "Zeros",
                          "config": {}
                        },
                        "gamma_initializer": {
                          "class_name": "Ones",
                          "config": {}
                        },
                        "moving_mean_initializer": {
                          "class_name": "Zeros",
                          "config": {}
                        },
                        "moving_variance_initializer": {
                          "class_name": "Ones",
                          "config": {}
                        },
                        "beta_regularizer": {
                          "class_name": "L2",
                          "config": {
                            "l2": 9.999999747378752e-05
                          }
                        },
                        "gamma_regularizer": {
                          "class_name": "L2",
                          "config": {
                            "l2": 9.999999747378752e-05
                          }
                        },
                        "beta_constraint": null,
                        "gamma_constraint": null
                      },
                      "name": "batch_normalization_3",
                      "inbound_nodes": [
                        [
                          [
                            "concatenate_2",
                            0,
                            0,
                            {}
                          ]
                        ]
                      ]
                    },
                    {
                      "class_name": "Activation",
                      "config": {
                        "name": "activation_3",
                        "trainable": true,
                        "dtype": "float32",
                        "activation": "elu"
                      },
                      "name": "activation_3",
                      "inbound_nodes": [
                        [
                          [
                            "batch_normalization_3",
                            0,
                            0,
                            {}
                          ]
                        ]
                      ]
                    },
                    {
                      "class_name": "Conv2D",
                      "config": {
                        "name": "conv2d_4",
                        "trainable": true,
                        "dtype": "float32",
                        "filters": 8,
                        "kernel_size": [
                          3,
                          3
                        ],
                        "strides": [
                          1,
                          1
                        ],
                        "padding": "same",
                        "data_format": "channels_last",
                        "dilation_rate": [
                          1,
                          1
                        ],
                        "groups": 1,
                        "activation": "linear",
                        "use_bias": false,
                        "kernel_initializer": {
                          "class_name": "GlorotUniform",
                          "config": {
                            "seed": null
                          }
                        },
                        "bias_initializer": {
                          "class_name": "Zeros",
                          "config": {}
                        },
                        "kernel_regularizer": {
                          "class_name": "L2",
                          "config": {
                            "l2": 9.999999747378752e-05
                          }
                        },
                        "bias_regularizer": null,
                        "activity_regularizer": null,
                        "kernel_constraint": null,
                        "bias_constraint": null
                      },
                      "name": "conv2d_4",
                      "inbound_nodes": [
                        [
                          [
                            "activation_3",
                            0,
                            0,
                            {}
                          ]
                        ]
                      ]
                    },
                    {
                      "class_name": "Dropout",
                      "config": {
                        "name": "dropout_3",
                        "trainable": true,
                        "dtype": "float32",
                        "rate": 0.2,
                        "noise_shape": null,
                        "seed": null
                      },
                      "name": "dropout_3",
                      "inbound_nodes": [
                        [
                          [
                            "conv2d_4",
                            0,
                            0,
                            {}
                          ]
                        ]
                      ]
                    },
                    {
                      "class_name": "Concatenate",
                      "config": {
                        "name": "concatenate_3",
                        "trainable": true,
                        "dtype": "float32",
                        "axis": -1
                      },
                      "name": "concatenate_3",
                      "inbound_nodes": [
                        [
                          [
                            "conv2d",
                            0,
                            0,
                            {}
                          ],
                          [
                            "dropout",
                            0,
                            0,
                            {}
                          ],
                          [
                            "dropout_1",
                            0,
                            0,
                            {}
                          ],
                          [
                            "dropout_2",
                            0,
                            0,
                            {}
                          ],
                          [
                            "dropout_3",
                            0,
                            0,
                            {}
                          ]
                        ]
                      ]
                    },
                    {
                      "class_name": "BatchNormalization",
                      "config": {
                        "name": "batch_normalization_4",
                        "trainable": true,
                        "dtype": "float32",
                        "axis": [
                          3
                        ],
                        "momentum": 0.99,
                        "epsilon": 0.001,
                        "center": true,
                        "scale": true,
                        "beta_initializer": {
                          "class_name": "Zeros",
                          "config": {}
                        },
                        "gamma_initializer": {
                          "class_name": "Ones",
                          "config": {}
                        },
                        "moving_mean_initializer": {
                          "class_name": "Zeros",
                          "config": {}
                        },
                        "moving_variance_initializer": {
                          "class_name": "Ones",
                          "config": {}
                        },
                        "beta_regularizer": {
                          "class_name": "L2",
                          "config": {
                            "l2": 9.999999747378752e-05
                          }
                        },
                        "gamma_regularizer": {
                          "class_name": "L2",
                          "config": {
                            "l2": 9.999999747378752e-05
                          }
                        },
                        "beta_constraint": null,
                        "gamma_constraint": null
                      },
                      "name": "batch_normalization_4",
                      "inbound_nodes": [
                        [
                          [
                            "concatenate_3",
                            0,
                            0,
                            {}
                          ]
                        ]
                      ]
                    },
                    {
                      "class_name": "Activation",
                      "config": {
                        "name": "activation_4",
                        "trainable": true,
                        "dtype": "float32",
                        "activation": "elu"
                      },
                      "name": "activation_4",
                      "inbound_nodes": [
                        [
                          [
                            "batch_normalization_4",
                            0,
                            0,
                            {}
                          ]
                        ]
                      ]
                    },
                    {
                      "class_name": "Conv2D",
                      "config": {
                        "name": "conv2d_5",
                        "trainable": true,
                        "dtype": "float32",
                        "filters": 8,
                        "kernel_size": [
                          3,
                          3
                        ],
                        "strides": [
                          1,
                          1
                        ],
                        "padding": "same",
                        "data_format": "channels_last",
                        "dilation_rate": [
                          1,
                          1
                        ],
                        "groups": 1,
                        "activation": "linear",
                        "use_bias": false,
                        "kernel_initializer": {
                          "class_name": "GlorotUniform",
                          "config": {
                            "seed": null
                          }
                        },
                        "bias_initializer": {
                          "class_name": "Zeros",
                          "config": {}
                        },
                        "kernel_regularizer": {
                          "class_name": "L2",
                          "config": {
                            "l2": 9.999999747378752e-05
                          }
                        },
                        "bias_regularizer": null,
                        "activity_regularizer": null,
                        "kernel_constraint": null,
                        "bias_constraint": null
                      },
                      "name": "conv2d_5",
                      "inbound_nodes": [
                        [
                          [
                            "activation_4",
                            0,
                            0,
                            {}
                          ]
                        ]
                      ]
                    },
                    {
                      "class_name": "Dropout",
                      "config": {
                        "name": "dropout_4",
                        "trainable": true,
                        "dtype": "float32",
                        "rate": 0.2,
                        "noise_shape": null,
                        "seed": null
                      },
                      "name": "dropout_4",
                      "inbound_nodes": [
                        [
                          [
                            "conv2d_5",
                            0,
                            0,
                            {}
                          ]
                        ]
                      ]
                    },
                    {
                      "class_name": "Concatenate",
                      "config": {
                        "name": "concatenate_4",
                        "trainable": true,
                        "dtype": "float32",
                        "axis": -1
                      },
                      "name": "concatenate_4",
                      "inbound_nodes": [
                        [
                          [
                            "conv2d",
                            0,
                            0,
                            {}
                          ],
                          [
                            "dropout",
                            0,
                            0,
                            {}
                          ],
                          [
                            "dropout_1",
                            0,
                            0,
                            {}
                          ],
                          [
                            "dropout_2",
                            0,
                            0,
                            {}
                          ],
                          [
                            "dropout_3",
                            0,
                            0,
                            {}
                          ],
                          [
                            "dropout_4",
                            0,
                            0,
                            {}
                          ]
                        ]
                      ]
                    },
                    {
                      "class_name": "BatchNormalization",
                      "config": {
                        "name": "batch_normalization_5",
                        "trainable": true,
                        "dtype": "float32",
                        "axis": [
                          3
                        ],
                        "momentum": 0.99,
                        "epsilon": 0.001,
                        "center": true,
                        "scale": true,
                        "beta_initializer": {
                          "class_name": "Zeros",
                          "config": {}
                        },
                        "gamma_initializer": {
                          "class_name": "Ones",
                          "config": {}
                        },
                        "moving_mean_initializer": {
                          "class_name": "Zeros",
                          "config": {}
                        },
                        "moving_variance_initializer": {
                          "class_name": "Ones",
                          "config": {}
                        },
                        "beta_regularizer": {
                          "class_name": "L2",
                          "config": {
                            "l2": 9.999999747378752e-05
                          }
                        },
                        "gamma_regularizer": {
                          "class_name": "L2",
                          "config": {
                            "l2": 9.999999747378752e-05
                          }
                        },
                        "beta_constraint": null,
                        "gamma_constraint": null
                      },
                      "name": "batch_normalization_5",
                      "inbound_nodes": [
                        [
                          [
                            "concatenate_4",
                            0,
                            0,
                            {}
                          ]
                        ]
                      ]
                    },
                    {
                      "class_name": "Activation",
                      "config": {
                        "name": "activation_5",
                        "trainable": true,
                        "dtype": "float32",
                        "activation": "elu"
                      },
                      "name": "activation_5",
                      "inbound_nodes": [
                        [
                          [
                            "batch_normalization_5",
                            0,
                            0,
                            {}
                          ]
                        ]
                      ]
                    },
                    {
                      "class_name": "Conv2D",
                      "config": {
                        "name": "conv2d_6",
                        "trainable": true,
                        "dtype": "float32",
                        "filters": 8,
                        "kernel_size": [
                          3,
                          3
                        ],
                        "strides": [
                          1,
                          1
                        ],
                        "padding": "same",
                        "data_format": "channels_last",
                        "dilation_rate": [
                          1,
                          1
                        ],
                        "groups": 1,
                        "activation": "linear",
                        "use_bias": false,
                        "kernel_initializer": {
                          "class_name": "GlorotUniform",
                          "config": {
                            "seed": null
                          }
                        },
                        "bias_initializer": {
                          "class_name": "Zeros",
                          "config": {}
                        },
                        "kernel_regularizer": {
                          "class_name": "L2",
                          "config": {
                            "l2": 9.999999747378752e-05
                          }
                        },
                        "bias_regularizer": null,
                        "activity_regularizer": null,
                        "kernel_constraint": null,
                        "bias_constraint": null
                      },
                      "name": "conv2d_6",
                      "inbound_nodes": [
                        [
                          [
                            "activation_5",
                            0,
                            0,
                            {}
                          ]
                        ]
                      ]
                    },
                    {
                      "class_name": "Dropout",
                      "config": {
                        "name": "dropout_5",
                        "trainable": true,
                        "dtype": "float32",
                        "rate": 0.2,
                        "noise_shape": null,
                        "seed": null
                      },
                      "name": "dropout_5",
                      "inbound_nodes": [
                        [
                          [
                            "conv2d_6",
                            0,
                            0,
                            {}
                          ]
                        ]
                      ]
                    },
                    {
                      "class_name": "Concatenate",
                      "config": {
                        "name": "concatenate_5",
                        "trainable": true,
                        "dtype": "float32",
                        "axis": -1
                      },
                      "name": "concatenate_5",
                      "inbound_nodes": [
                        [
                          [
                            "conv2d",
                            0,
                            0,
                            {}
                          ],
                          [
                            "dropout",
                            0,
                            0,
                            {}
                          ],
                          [
                            "dropout_1",
                            0,
                            0,
                            {}
                          ],
                          [
                            "dropout_2",
                            0,
                            0,
                            {}
                          ],
                          [
                            "dropout_3",
                            0,
                            0,
                            {}
                          ],
                          [
                            "dropout_4",
                            0,
                            0,
                            {}
                          ],
                          [
                            "dropout_5",
                            0,
                            0,
                            {}
                          ]
                        ]
                      ]
                    },
                    {
                      "class_name": "BatchNormalization",
                      "config": {
                        "name": "batch_normalization_6",
                        "trainable": true,
                        "dtype": "float32",
                        "axis": [
                          3
                        ],
                        "momentum": 0.99,
                        "epsilon": 0.001,
                        "center": true,
                        "scale": true,
                        "beta_initializer": {
                          "class_name": "Zeros",
                          "config": {}
                        },
                        "gamma_initializer": {
                          "class_name": "Ones",
                          "config": {}
                        },
                        "moving_mean_initializer": {
                          "class_name": "Zeros",
                          "config": {}
                        },
                        "moving_variance_initializer": {
                          "class_name": "Ones",
                          "config": {}
                        },
                        "beta_regularizer": {
                          "class_name": "L2",
                          "config": {
                            "l2": 9.999999747378752e-05
                          }
                        },
                        "gamma_regularizer": {
                          "class_name": "L2",
                          "config": {
                            "l2": 9.999999747378752e-05
                          }
                        },
                        "beta_constraint": null,
                        "gamma_constraint": null
                      },
                      "name": "batch_normalization_6",
                      "inbound_nodes": [
                        [
                          [
                            "concatenate_5",
                            0,
                            0,
                            {}
                          ]
                        ]
                      ]
                    },
                    {
                      "class_name": "Activation",
                      "config": {
                        "name": "activation_6",
                        "trainable": true,
                        "dtype": "float32",
                        "activation": "elu"
                      },
                      "name": "activation_6",
                      "inbound_nodes": [
                        [
                          [
                            "batch_normalization_6",
                            0,
                            0,
                            {}
                          ]
                        ]
                      ]
                    },
                    {
                      "class_name": "Conv2D",
                      "config": {
                        "name": "conv2d_7",
                        "trainable": true,
                        "dtype": "float32",
                        "filters": 64,
                        "kernel_size": [
                          1,
                          1
                        ],
                        "strides": [
                          1,
                          1
                        ],
                        "padding": "same",
                        "data_format": "channels_last",
                        "dilation_rate": [
                          1,
                          1
                        ],
                        "groups": 1,
                        "activation": "linear",
                        "use_bias": false,
                        "kernel_initializer": {
                          "class_name": "GlorotUniform",
                          "config": {
                            "seed": null
                          }
                        },
                        "bias_initializer": {
                          "class_name": "Zeros",
                          "config": {}
                        },
                        "kernel_regularizer": {
                          "class_name": "L2",
                          "config": {
                            "l2": 9.999999747378752e-05
                          }
                        },
                        "bias_regularizer": null,
                        "activity_regularizer": null,
                        "kernel_constraint": null,
                        "bias_constraint": null
                      },
                      "name": "conv2d_7",
                      "inbound_nodes": [
                        [
                          [
                            "activation_6",
                            0,
                            0,
                            {}
                          ]
                        ]
                      ]
                    },
                    {
                      "class_name": "Dropout",
                      "config": {
                        "name": "dropout_6",
                        "trainable": true,
                        "dtype": "float32",
                        "rate": 0.2,
                        "noise_shape": null,
                        "seed": null
                      },
                      "name": "dropout_6",
                      "inbound_nodes": [
                        [
                          [
                            "conv2d_7",
                            0,
                            0,
                            {}
                          ]
                        ]
                      ]
                    },
                    {
                      "class_name": "AveragePooling2D",
                      "config": {
                        "name": "average_pooling2d",
                        "trainable": true,
                        "dtype": "float32",
                        "pool_size": [
                          2,
                          2
                        ],
                        "padding": "valid",
                        "strides": [
                          2,
                          2
                        ],
                        "data_format": "channels_last"
                      },
                      "name": "average_pooling2d",
                      "inbound_nodes": [
                        [
                          [
                            "dropout_6",
                            0,
                            0,
                            {}
                          ]
                        ]
                      ]
                    },
                    {
                      "class_name": "BatchNormalization",
                      "config": {
                        "name": "batch_normalization_7",
                        "trainable": true,
                        "dtype": "float32",
                        "axis": [
                          3
                        ],
                        "momentum": 0.99,
                        "epsilon": 0.001,
                        "center": true,
                        "scale": true,
                        "beta_initializer": {
                          "class_name": "Zeros",
                          "config": {}
                        },
                        "gamma_initializer": {
                          "class_name": "Ones",
                          "config": {}
                        },
                        "moving_mean_initializer": {
                          "class_name": "Zeros",
                          "config": {}
                        },
                        "moving_variance_initializer": {
                          "class_name": "Ones",
                          "config": {}
                        },
                        "beta_regularizer": {
                          "class_name": "L2",
                          "config": {
                            "l2": 9.999999747378752e-05
                          }
                        },
                        "gamma_regularizer": {
                          "class_name": "L2",
                          "config": {
                            "l2": 9.999999747378752e-05
                          }
                        },
                        "beta_constraint": null,
                        "gamma_constraint": null
                      },
                      "name": "batch_normalization_7",
                      "inbound_nodes": [
                        [
                          [
                            "average_pooling2d",
                            0,
                            0,
                            {}
                          ]
                        ]
                      ]
                    },
                    {
                      "class_name": "Activation",
                      "config": {
                        "name": "activation_7",
                        "trainable": true,
                        "dtype": "float32",
                        "activation": "elu"
                      },
                      "name": "activation_7",
                      "inbound_nodes": [
                        [
                          [
                            "batch_normalization_7",
                            0,
                            0,
                            {}
                          ]
                        ]
                      ]
                    },
                    {
                      "class_name": "Conv2D",
                      "config": {
                        "name": "conv2d_8",
                        "trainable": true,
                        "dtype": "float32",
                        "filters": 8,
                        "kernel_size": [
                          3,
                          3
                        ],
                        "strides": [
                          1,
                          1
                        ],
                        "padding": "same",
                        "data_format": "channels_last",
                        "dilation_rate": [
                          1,
                          1
                        ],
                        "groups": 1,
                        "activation": "linear",
                        "use_bias": false,
                        "kernel_initializer": {
                          "class_name": "GlorotUniform",
                          "config": {
                            "seed": null
                          }
                        },
                        "bias_initializer": {
                          "class_name": "Zeros",
                          "config": {}
                        },
                        "kernel_regularizer": {
                          "class_name": "L2",
                          "config": {
                            "l2": 9.999999747378752e-05
                          }
                        },
                        "bias_regularizer": null,
                        "activity_regularizer": null,
                        "kernel_constraint": null,
                        "bias_constraint": null
                      },
                      "name": "conv2d_8",
                      "inbound_nodes": [
                        [
                          [
                            "activation_7",
                            0,
                            0,
                            {}
                          ]
                        ]
                      ]
                    },
                    {
                      "class_name": "Dropout",
                      "config": {
                        "name": "dropout_7",
                        "trainable": true,
                        "dtype": "float32",
                        "rate": 0.2,
                        "noise_shape": null,
                        "seed": null
                      },
                      "name": "dropout_7",
                      "inbound_nodes": [
                        [
                          [
                            "conv2d_8",
                            0,
                            0,
                            {}
                          ]
                        ]
                      ]
                    },
                    {
                      "class_name": "Concatenate",
                      "config": {
                        "name": "concatenate_6",
                        "trainable": true,
                        "dtype": "float32",
                        "axis": -1
                      },
                      "name": "concatenate_6",
                      "inbound_nodes": [
                        [
                          [
                            "average_pooling2d",
                            0,
                            0,
                            {}
                          ],
                          [
                            "dropout_7",
                            0,
                            0,
                            {}
                          ]
                        ]
                      ]
                    },
                    {
                      "class_name": "BatchNormalization",
                      "config": {
                        "name": "batch_normalization_8",
                        "trainable": true,
                        "dtype": "float32",
                        "axis": [
                          3
                        ],
                        "momentum": 0.99,
                        "epsilon": 0.001,
                        "center": true,
                        "scale": true,
                        "beta_initializer": {
                          "class_name": "Zeros",
                          "config": {}
                        },
                        "gamma_initializer": {
                          "class_name": "Ones",
                          "config": {}
                        },
                        "moving_mean_initializer": {
                          "class_name": "Zeros",
                          "config": {}
                        },
                        "moving_variance_initializer": {
                          "class_name": "Ones",
                          "config": {}
                        },
                        "beta_regularizer": {
                          "class_name": "L2",
                          "config": {
                            "l2": 9.999999747378752e-05
                          }
                        },
                        "gamma_regularizer": {
                          "class_name": "L2",
                          "config": {
                            "l2": 9.999999747378752e-05
                          }
                        },
                        "beta_constraint": null,
                        "gamma_constraint": null
                      },
                      "name": "batch_normalization_8",
                      "inbound_nodes": [
                        [
                          [
                            "concatenate_6",
                            0,
                            0,
                            {}
                          ]
                        ]
                      ]
                    },
                    {
                      "class_name": "Activation",
                      "config": {
                        "name": "activation_8",
                        "trainable": true,
                        "dtype": "float32",
                        "activation": "elu"
                      },
                      "name": "activation_8",
                      "inbound_nodes": [
                        [
                          [
                            "batch_normalization_8",
                            0,
                            0,
                            {}
                          ]
                        ]
                      ]
                    },
                    {
                      "class_name": "Conv2D",
                      "config": {
                        "name": "conv2d_9",
                        "trainable": true,
                        "dtype": "float32",
                        "filters": 8,
                        "kernel_size": [
                          3,
                          3
                        ],
                        "strides": [
                          1,
                          1
                        ],
                        "padding": "same",
                        "data_format": "channels_last",
                        "dilation_rate": [
                          1,
                          1
                        ],
                        "groups": 1,
                        "activation": "linear",
                        "use_bias": false,
                        "kernel_initializer": {
                          "class_name": "GlorotUniform",
                          "config": {
                            "seed": null
                          }
                        },
                        "bias_initializer": {
                          "class_name": "Zeros",
                          "config": {}
                        },
                        "kernel_regularizer": {
                          "class_name": "L2",
                          "config": {
                            "l2": 9.999999747378752e-05
                          }
                        },
                        "bias_regularizer": null,
                        "activity_regularizer": null,
                        "kernel_constraint": null,
                        "bias_constraint": null
                      },
                      "name": "conv2d_9",
                      "inbound_nodes": [
                        [
                          [
                            "activation_8",
                            0,
                            0,
                            {}
                          ]
                        ]
                      ]
                    },
                    {
                      "class_name": "Dropout",
                      "config": {
                        "name": "dropout_8",
                        "trainable": true,
                        "dtype": "float32",
                        "rate": 0.2,
                        "noise_shape": null,
                        "seed": null
                      },
                      "name": "dropout_8",
                      "inbound_nodes": [
                        [
                          [
                            "conv2d_9",
                            0,
                            0,
                            {}
                          ]
                        ]
                      ]
                    },
                    {
                      "class_name": "Concatenate",
                      "config": {
                        "name": "concatenate_7",
                        "trainable": true,
                        "dtype": "float32",
                        "axis": -1
                      },
                      "name": "concatenate_7",
                      "inbound_nodes": [
                        [
                          [
                            "average_pooling2d",
                            0,
                            0,
                            {}
                          ],
                          [
                            "dropout_7",
                            0,
                            0,
                            {}
                          ],
                          [
                            "dropout_8",
                            0,
                            0,
                            {}
                          ]
                        ]
                      ]
                    },
                    {
                      "class_name": "BatchNormalization",
                      "config": {
                        "name": "batch_normalization_9",
                        "trainable": true,
                        "dtype": "float32",
                        "axis": [
                          3
                        ],
                        "momentum": 0.99,
                        "epsilon": 0.001,
                        "center": true,
                        "scale": true,
                        "beta_initializer": {
                          "class_name": "Zeros",
                          "config": {}
                        },
                        "gamma_initializer": {
                          "class_name": "Ones",
                          "config": {}
                        },
                        "moving_mean_initializer": {
                          "class_name": "Zeros",
                          "config": {}
                        },
                        "moving_variance_initializer": {
                          "class_name": "Ones",
                          "config": {}
                        },
                        "beta_regularizer": {
                          "class_name": "L2",
                          "config": {
                            "l2": 9.999999747378752e-05
                          }
                        },
                        "gamma_regularizer": {
                          "class_name": "L2",
                          "config": {
                            "l2": 9.999999747378752e-05
                          }
                        },
                        "beta_constraint": null,
                        "gamma_constraint": null
                      },
                      "name": "batch_normalization_9",
                      "inbound_nodes": [
                        [
                          [
                            "concatenate_7",
                            0,
                            0,
                            {}
                          ]
                        ]
                      ]
                    },
                    {
                      "class_name": "Activation",
                      "config": {
                        "name": "activation_9",
                        "trainable": true,
                        "dtype": "float32",
                        "activation": "elu"
                      },
                      "name": "activation_9",
                      "inbound_nodes": [
                        [
                          [
                            "batch_normalization_9",
                            0,
                            0,
                            {}
                          ]
                        ]
                      ]
                    },
                    {
                      "class_name": "Conv2D",
                      "config": {
                        "name": "conv2d_10",
                        "trainable": true,
                        "dtype": "float32",
                        "filters": 8,
                        "kernel_size": [
                          3,
                          3
                        ],
                        "strides": [
                          1,
                          1
                        ],
                        "padding": "same",
                        "data_format": "channels_last",
                        "dilation_rate": [
                          1,
                          1
                        ],
                        "groups": 1,
                        "activation": "linear",
                        "use_bias": false,
                        "kernel_initializer": {
                          "class_name": "GlorotUniform",
                          "config": {
                            "seed": null
                          }
                        },
                        "bias_initializer": {
                          "class_name": "Zeros",
                          "config": {}
                        },
                        "kernel_regularizer": {
                          "class_name": "L2",
                          "config": {
                            "l2": 9.999999747378752e-05
                          }
                        },
                        "bias_regularizer": null,
                        "activity_regularizer": null,
                        "kernel_constraint": null,
                        "bias_constraint": null
                      },
                      "name": "conv2d_10",
                      "inbound_nodes": [
                        [
                          [
                            "activation_9",
                            0,
                            0,
                            {}
                          ]
                        ]
                      ]
                    },
                    {
                      "class_name": "Dropout",
                      "config": {
                        "name": "dropout_9",
                        "trainable": true,
                        "dtype": "float32",
                        "rate": 0.2,
                        "noise_shape": null,
                        "seed": null
                      },
                      "name": "dropout_9",
                      "inbound_nodes": [
                        [
                          [
                            "conv2d_10",
                            0,
                            0,
                            {}
                          ]
                        ]
                      ]
                    },
                    {
                      "class_name": "Concatenate",
                      "config": {
                        "name": "concatenate_8",
                        "trainable": true,
                        "dtype": "float32",
                        "axis": -1
                      },
                      "name": "concatenate_8",
                      "inbound_nodes": [
                        [
                          [
                            "average_pooling2d",
                            0,
                            0,
                            {}
                          ],
                          [
                            "dropout_7",
                            0,
                            0,
                            {}
                          ],
                          [
                            "dropout_8",
                            0,
                            0,
                            {}
                          ],
                          [
                            "dropout_9",
                            0,
                            0,
                            {}
                          ]
                        ]
                      ]
                    },
                    {
                      "class_name": "BatchNormalization",
                      "config": {
                        "name": "batch_normalization_10",
                        "trainable": true,
                        "dtype": "float32",
                        "axis": [
                          3
                        ],
                        "momentum": 0.99,
                        "epsilon": 0.001,
                        "center": true,
                        "scale": true,
                        "beta_initializer": {
                          "class_name": "Zeros",
                          "config": {}
                        },
                        "gamma_initializer": {
                          "class_name": "Ones",
                          "config": {}
                        },
                        "moving_mean_initializer": {
                          "class_name": "Zeros",
                          "config": {}
                        },
                        "moving_variance_initializer": {
                          "class_name": "Ones",
                          "config": {}
                        },
                        "beta_regularizer": {
                          "class_name": "L2",
                          "config": {
                            "l2": 9.999999747378752e-05
                          }
                        },
                        "gamma_regularizer": {
                          "class_name": "L2",
                          "config": {
                            "l2": 9.999999747378752e-05
                          }
                        },
                        "beta_constraint": null,
                        "gamma_constraint": null
                      },
                      "name": "batch_normalization_10",
                      "inbound_nodes": [
                        [
                          [
                            "concatenate_8",
                            0,
                            0,
                            {}
                          ]
                        ]
                      ]
                    },
                    {
                      "class_name": "Activation",
                      "config": {
                        "name": "activation_10",
                        "trainable": true,
                        "dtype": "float32",
                        "activation": "elu"
                      },
                      "name": "activation_10",
                      "inbound_nodes": [
                        [
                          [
                            "batch_normalization_10",
                            0,
                            0,
                            {}
                          ]
                        ]
                      ]
                    },
                    {
                      "class_name": "Conv2D",
                      "config": {
                        "name": "conv2d_11",
                        "trainable": true,
                        "dtype": "float32",
                        "filters": 8,
                        "kernel_size": [
                          3,
                          3
                        ],
                        "strides": [
                          1,
                          1
                        ],
                        "padding": "same",
                        "data_format": "channels_last",
                        "dilation_rate": [
                          1,
                          1
                        ],
                        "groups": 1,
                        "activation": "linear",
                        "use_bias": false,
                        "kernel_initializer": {
                          "class_name": "GlorotUniform",
                          "config": {
                            "seed": null
                          }
                        },
                        "bias_initializer": {
                          "class_name": "Zeros",
                          "config": {}
                        },
                        "kernel_regularizer": {
                          "class_name": "L2",
                          "config": {
                            "l2": 9.999999747378752e-05
                          }
                        },
                        "bias_regularizer": null,
                        "activity_regularizer": null,
                        "kernel_constraint": null,
                        "bias_constraint": null
                      },
                      "name": "conv2d_11",
                      "inbound_nodes": [
                        [
                          [
                            "activation_10",
                            0,
                            0,
                            {}
                          ]
                        ]
                      ]
                    },
                    {
                      "class_name": "Dropout",
                      "config": {
                        "name": "dropout_10",
                        "trainable": true,
                        "dtype": "float32",
                        "rate": 0.2,
                        "noise_shape": null,
                        "seed": null
                      },
                      "name": "dropout_10",
                      "inbound_nodes": [
                        [
                          [
                            "conv2d_11",
                            0,
                            0,
                            {}
                          ]
                        ]
                      ]
                    },
                    {
                      "class_name": "Concatenate",
                      "config": {
                        "name": "concatenate_9",
                        "trainable": true,
                        "dtype": "float32",
                        "axis": -1
                      },
                      "name": "concatenate_9",
                      "inbound_nodes": [
                        [
                          [
                            "average_pooling2d",
                            0,
                            0,
                            {}
                          ],
                          [
                            "dropout_7",
                            0,
                            0,
                            {}
                          ],
                          [
                            "dropout_8",
                            0,
                            0,
                            {}
                          ],
                          [
                            "dropout_9",
                            0,
                            0,
                            {}
                          ],
                          [
                            "dropout_10",
                            0,
                            0,
                            {}
                          ]
                        ]
                      ]
                    },
                    {
                      "class_name": "BatchNormalization",
                      "config": {
                        "name": "batch_normalization_11",
                        "trainable": true,
                        "dtype": "float32",
                        "axis": [
                          3
                        ],
                        "momentum": 0.99,
                        "epsilon": 0.001,
                        "center": true,
                        "scale": true,
                        "beta_initializer": {
                          "class_name": "Zeros",
                          "config": {}
                        },
                        "gamma_initializer": {
                          "class_name": "Ones",
                          "config": {}
                        },
                        "moving_mean_initializer": {
                          "class_name": "Zeros",
                          "config": {}
                        },
                        "moving_variance_initializer": {
                          "class_name": "Ones",
                          "config": {}
                        },
                        "beta_regularizer": {
                          "class_name": "L2",
                          "config": {
                            "l2": 9.999999747378752e-05
                          }
                        },
                        "gamma_regularizer": {
                          "class_name": "L2",
                          "config": {
                            "l2": 9.999999747378752e-05
                          }
                        },
                        "beta_constraint": null,
                        "gamma_constraint": null
                      },
                      "name": "batch_normalization_11",
                      "inbound_nodes": [
                        [
                          [
                            "concatenate_9",
                            0,
                            0,
                            {}
                          ]
                        ]
                      ]
                    },
                    {
                      "class_name": "Activation",
                      "config": {
                        "name": "activation_11",
                        "trainable": true,
                        "dtype": "float32",
                        "activation": "elu"
                      },
                      "name": "activation_11",
                      "inbound_nodes": [
                        [
                          [
                            "batch_normalization_11",
                            0,
                            0,
                            {}
                          ]
                        ]
                      ]
                    },
                    {
                      "class_name": "Conv2D",
                      "config": {
                        "name": "conv2d_12",
                        "trainable": true,
                        "dtype": "float32",
                        "filters": 8,
                        "kernel_size": [
                          3,
                          3
                        ],
                        "strides": [
                          1,
                          1
                        ],
                        "padding": "same",
                        "data_format": "channels_last",
                        "dilation_rate": [
                          1,
                          1
                        ],
                        "groups": 1,
                        "activation": "linear",
                        "use_bias": false,
                        "kernel_initializer": {
                          "class_name": "GlorotUniform",
                          "config": {
                            "seed": null
                          }
                        },
                        "bias_initializer": {
                          "class_name": "Zeros",
                          "config": {}
                        },
                        "kernel_regularizer": {
                          "class_name": "L2",
                          "config": {
                            "l2": 9.999999747378752e-05
                          }
                        },
                        "bias_regularizer": null,
                        "activity_regularizer": null,
                        "kernel_constraint": null,
                        "bias_constraint": null
                      },
                      "name": "conv2d_12",
                      "inbound_nodes": [
                        [
                          [
                            "activation_11",
                            0,
                            0,
                            {}
                          ]
                        ]
                      ]
                    },
                    {
                      "class_name": "Dropout",
                      "config": {
                        "name": "dropout_11",
                        "trainable": true,
                        "dtype": "float32",
                        "rate": 0.2,
                        "noise_shape": null,
                        "seed": null
                      },
                      "name": "dropout_11",
                      "inbound_nodes": [
                        [
                          [
                            "conv2d_12",
                            0,
                            0,
                            {}
                          ]
                        ]
                      ]
                    },
                    {
                      "class_name": "Concatenate",
                      "config": {
                        "name": "concatenate_10",
                        "trainable": true,
                        "dtype": "float32",
                        "axis": -1
                      },
                      "name": "concatenate_10",
                      "inbound_nodes": [
                        [
                          [
                            "average_pooling2d",
                            0,
                            0,
                            {}
                          ],
                          [
                            "dropout_7",
                            0,
                            0,
                            {}
                          ],
                          [
                            "dropout_8",
                            0,
                            0,
                            {}
                          ],
                          [
                            "dropout_9",
                            0,
                            0,
                            {}
                          ],
                          [
                            "dropout_10",
                            0,
                            0,
                            {}
                          ],
                          [
                            "dropout_11",
                            0,
                            0,
                            {}
                          ]
                        ]
                      ]
                    },
                    {
                      "class_name": "BatchNormalization",
                      "config": {
                        "name": "batch_normalization_12",
                        "trainable": true,
                        "dtype": "float32",
                        "axis": [
                          3
                        ],
                        "momentum": 0.99,
                        "epsilon": 0.001,
                        "center": true,
                        "scale": true,
                        "beta_initializer": {
                          "class_name": "Zeros",
                          "config": {}
                        },
                        "gamma_initializer": {
                          "class_name": "Ones",
                          "config": {}
                        },
                        "moving_mean_initializer": {
                          "class_name": "Zeros",
                          "config": {}
                        },
                        "moving_variance_initializer": {
                          "class_name": "Ones",
                          "config": {}
                        },
                        "beta_regularizer": {
                          "class_name": "L2",
                          "config": {
                            "l2": 9.999999747378752e-05
                          }
                        },
                        "gamma_regularizer": {
                          "class_name": "L2",
                          "config": {
                            "l2": 9.999999747378752e-05
                          }
                        },
                        "beta_constraint": null,
                        "gamma_constraint": null
                      },
                      "name": "batch_normalization_12",
                      "inbound_nodes": [
                        [
                          [
                            "concatenate_10",
                            0,
                            0,
                            {}
                          ]
                        ]
                      ]
                    },
                    {
                      "class_name": "Activation",
                      "config": {
                        "name": "activation_12",
                        "trainable": true,
                        "dtype": "float32",
                        "activation": "elu"
                      },
                      "name": "activation_12",
                      "inbound_nodes": [
                        [
                          [
                            "batch_normalization_12",
                            0,
                            0,
                            {}
                          ]
                        ]
                      ]
                    },
                    {
                      "class_name": "Conv2D",
                      "config": {
                        "name": "conv2d_13",
                        "trainable": true,
                        "dtype": "float32",
                        "filters": 8,
                        "kernel_size": [
                          3,
                          3
                        ],
                        "strides": [
                          1,
                          1
                        ],
                        "padding": "same",
                        "data_format": "channels_last",
                        "dilation_rate": [
                          1,
                          1
                        ],
                        "groups": 1,
                        "activation": "linear",
                        "use_bias": false,
                        "kernel_initializer": {
                          "class_name": "GlorotUniform",
                          "config": {
                            "seed": null
                          }
                        },
                        "bias_initializer": {
                          "class_name": "Zeros",
                          "config": {}
                        },
                        "kernel_regularizer": {
                          "class_name": "L2",
                          "config": {
                            "l2": 9.999999747378752e-05
                          }
                        },
                        "bias_regularizer": null,
                        "activity_regularizer": null,
                        "kernel_constraint": null,
                        "bias_constraint": null
                      },
                      "name": "conv2d_13",
                      "inbound_nodes": [
                        [
                          [
                            "activation_12",
                            0,
                            0,
                            {}
                          ]
                        ]
                      ]
                    },
                    {
                      "class_name": "Dropout",
                      "config": {
                        "name": "dropout_12",
                        "trainable": true,
                        "dtype": "float32",
                        "rate": 0.2,
                        "noise_shape": null,
                        "seed": null
                      },
                      "name": "dropout_12",
                      "inbound_nodes": [
                        [
                          [
                            "conv2d_13",
                            0,
                            0,
                            {}
                          ]
                        ]
                      ]
                    },
                    {
                      "class_name": "Concatenate",
                      "config": {
                        "name": "concatenate_11",
                        "trainable": true,
                        "dtype": "float32",
                        "axis": -1
                      },
                      "name": "concatenate_11",
                      "inbound_nodes": [
                        [
                          [
                            "average_pooling2d",
                            0,
                            0,
                            {}
                          ],
                          [
                            "dropout_7",
                            0,
                            0,
                            {}
                          ],
                          [
                            "dropout_8",
                            0,
                            0,
                            {}
                          ],
                          [
                            "dropout_9",
                            0,
                            0,
                            {}
                          ],
                          [
                            "dropout_10",
                            0,
                            0,
                            {}
                          ],
                          [
                            "dropout_11",
                            0,
                            0,
                            {}
                          ],
                          [
                            "dropout_12",
                            0,
                            0,
                            {}
                          ]
                        ]
                      ]
                    },
                    {
                      "class_name": "BatchNormalization",
                      "config": {
                        "name": "batch_normalization_13",
                        "trainable": true,
                        "dtype": "float32",
                        "axis": [
                          3
                        ],
                        "momentum": 0.99,
                        "epsilon": 0.001,
                        "center": true,
                        "scale": true,
                        "beta_initializer": {
                          "class_name": "Zeros",
                          "config": {}
                        },
                        "gamma_initializer": {
                          "class_name": "Ones",
                          "config": {}
                        },
                        "moving_mean_initializer": {
                          "class_name": "Zeros",
                          "config": {}
                        },
                        "moving_variance_initializer": {
                          "class_name": "Ones",
                          "config": {}
                        },
                        "beta_regularizer": {
                          "class_name": "L2",
                          "config": {
                            "l2": 9.999999747378752e-05
                          }
                        },
                        "gamma_regularizer": {
                          "class_name": "L2",
                          "config": {
                            "l2": 9.999999747378752e-05
                          }
                        },
                        "beta_constraint": null,
                        "gamma_constraint": null
                      },
                      "name": "batch_normalization_13",
                      "inbound_nodes": [
                        [
                          [
                            "concatenate_11",
                            0,
                            0,
                            {}
                          ]
                        ]
                      ]
                    },
                    {
                      "class_name": "Activation",
                      "config": {
                        "name": "activation_13",
                        "trainable": true,
                        "dtype": "float32",
                        "activation": "elu"
                      },
                      "name": "activation_13",
                      "inbound_nodes": [
                        [
                          [
                            "batch_normalization_13",
                            0,
                            0,
                            {}
                          ]
                        ]
                      ]
                    },
                    {
                      "class_name": "Conv2D",
                      "config": {
                        "name": "conv2d_14",
                        "trainable": true,
                        "dtype": "float32",
                        "filters": 112,
                        "kernel_size": [
                          1,
                          1
                        ],
                        "strides": [
                          1,
                          1
                        ],
                        "padding": "same",
                        "data_format": "channels_last",
                        "dilation_rate": [
                          1,
                          1
                        ],
                        "groups": 1,
                        "activation": "linear",
                        "use_bias": false,
                        "kernel_initializer": {
                          "class_name": "GlorotUniform",
                          "config": {
                            "seed": null
                          }
                        },
                        "bias_initializer": {
                          "class_name": "Zeros",
                          "config": {}
                        },
                        "kernel_regularizer": {
                          "class_name": "L2",
                          "config": {
                            "l2": 9.999999747378752e-05
                          }
                        },
                        "bias_regularizer": null,
                        "activity_regularizer": null,
                        "kernel_constraint": null,
                        "bias_constraint": null
                      },
                      "name": "conv2d_14",
                      "inbound_nodes": [
                        [
                          [
                            "activation_13",
                            0,
                            0,
                            {}
                          ]
                        ]
                      ]
                    },
                    {
                      "class_name": "Dropout",
                      "config": {
                        "name": "dropout_13",
                        "trainable": true,
                        "dtype": "float32",
                        "rate": 0.2,
                        "noise_shape": null,
                        "seed": null
                      },
                      "name": "dropout_13",
                      "inbound_nodes": [
                        [
                          [
                            "conv2d_14",
                            0,
                            0,
                            {}
                          ]
                        ]
                      ]
                    },
                    {
                      "class_name": "AveragePooling2D",
                      "config": {
                        "name": "average_pooling2d_1",
                        "trainable": true,
                        "dtype": "float32",
                        "pool_size": [
                          2,
                          2
                        ],
                        "padding": "valid",
                        "strides": [
                          2,
                          2
                        ],
                        "data_format": "channels_last"
                      },
                      "name": "average_pooling2d_1",
                      "inbound_nodes": [
                        [
                          [
                            "dropout_13",
                            0,
                            0,
                            {}
                          ]
                        ]
                      ]
                    },
                    {
                      "class_name": "BatchNormalization",
                      "config": {
                        "name": "batch_normalization_14",
                        "trainable": true,
                        "dtype": "float32",
                        "axis": [
                          3
                        ],
                        "momentum": 0.99,
                        "epsilon": 0.001,
                        "center": true,
                        "scale": true,
                        "beta_initializer": {
                          "class_name": "Zeros",
                          "config": {}
                        },
                        "gamma_initializer": {
                          "class_name": "Ones",
                          "config": {}
                        },
                        "moving_mean_initializer": {
                          "class_name": "Zeros",
                          "config": {}
                        },
                        "moving_variance_initializer": {
                          "class_name": "Ones",
                          "config": {}
                        },
                        "beta_regularizer": {
                          "class_name": "L2",
                          "config": {
                            "l2": 9.999999747378752e-05
                          }
                        },
                        "gamma_regularizer": {
                          "class_name": "L2",
                          "config": {
                            "l2": 9.999999747378752e-05
                          }
                        },
                        "beta_constraint": null,
                        "gamma_constraint": null
                      },
                      "name": "batch_normalization_14",
                      "inbound_nodes": [
                        [
                          [
                            "average_pooling2d_1",
                            0,
                            0,
                            {}
                          ]
                        ]
                      ]
                    },
                    {
                      "class_name": "Activation",
                      "config": {
                        "name": "activation_14",
                        "trainable": true,
                        "dtype": "float32",
                        "activation": "elu"
                      },
                      "name": "activation_14",
                      "inbound_nodes": [
                        [
                          [
                            "batch_normalization_14",
                            0,
                            0,
                            {}
                          ]
                        ]
                      ]
                    },
                    {
                      "class_name": "Conv2D",
                      "config": {
                        "name": "conv2d_15",
                        "trainable": true,
                        "dtype": "float32",
                        "filters": 8,
                        "kernel_size": [
                          3,
                          3
                        ],
                        "strides": [
                          1,
                          1
                        ],
                        "padding": "same",
                        "data_format": "channels_last",
                        "dilation_rate": [
                          1,
                          1
                        ],
                        "groups": 1,
                        "activation": "linear",
                        "use_bias": false,
                        "kernel_initializer": {
                          "class_name": "GlorotUniform",
                          "config": {
                            "seed": null
                          }
                        },
                        "bias_initializer": {
                          "class_name": "Zeros",
                          "config": {}
                        },
                        "kernel_regularizer": {
                          "class_name": "L2",
                          "config": {
                            "l2": 9.999999747378752e-05
                          }
                        },
                        "bias_regularizer": null,
                        "activity_regularizer": null,
                        "kernel_constraint": null,
                        "bias_constraint": null
                      },
                      "name": "conv2d_15",
                      "inbound_nodes": [
                        [
                          [
                            "activation_14",
                            0,
                            0,
                            {}
                          ]
                        ]
                      ]
                    },
                    {
                      "class_name": "Dropout",
                      "config": {
                        "name": "dropout_14",
                        "trainable": true,
                        "dtype": "float32",
                        "rate": 0.2,
                        "noise_shape": null,
                        "seed": null
                      },
                      "name": "dropout_14",
                      "inbound_nodes": [
                        [
                          [
                            "conv2d_15",
                            0,
                            0,
                            {}
                          ]
                        ]
                      ]
                    },
                    {
                      "class_name": "Concatenate",
                      "config": {
                        "name": "concatenate_12",
                        "trainable": true,
                        "dtype": "float32",
                        "axis": -1
                      },
                      "name": "concatenate_12",
                      "inbound_nodes": [
                        [
                          [
                            "average_pooling2d_1",
                            0,
                            0,
                            {}
                          ],
                          [
                            "dropout_14",
                            0,
                            0,
                            {}
                          ]
                        ]
                      ]
                    },
                    {
                      "class_name": "BatchNormalization",
                      "config": {
                        "name": "batch_normalization_15",
                        "trainable": true,
                        "dtype": "float32",
                        "axis": [
                          3
                        ],
                        "momentum": 0.99,
                        "epsilon": 0.001,
                        "center": true,
                        "scale": true,
                        "beta_initializer": {
                          "class_name": "Zeros",
                          "config": {}
                        },
                        "gamma_initializer": {
                          "class_name": "Ones",
                          "config": {}
                        },
                        "moving_mean_initializer": {
                          "class_name": "Zeros",
                          "config": {}
                        },
                        "moving_variance_initializer": {
                          "class_name": "Ones",
                          "config": {}
                        },
                        "beta_regularizer": {
                          "class_name": "L2",
                          "config": {
                            "l2": 9.999999747378752e-05
                          }
                        },
                        "gamma_regularizer": {
                          "class_name": "L2",
                          "config": {
                            "l2": 9.999999747378752e-05
                          }
                        },
                        "beta_constraint": null,
                        "gamma_constraint": null
                      },
                      "name": "batch_normalization_15",
                      "inbound_nodes": [
                        [
                          [
                            "concatenate_12",
                            0,
                            0,
                            {}
                          ]
                        ]
                      ]
                    },
                    {
                      "class_name": "Activation",
                      "config": {
                        "name": "activation_15",
                        "trainable": true,
                        "dtype": "float32",
                        "activation": "elu"
                      },
                      "name": "activation_15",
                      "inbound_nodes": [
                        [
                          [
                            "batch_normalization_15",
                            0,
                            0,
                            {}
                          ]
                        ]
                      ]
                    },
                    {
                      "class_name": "Conv2D",
                      "config": {
                        "name": "conv2d_16",
                        "trainable": true,
                        "dtype": "float32",
                        "filters": 8,
                        "kernel_size": [
                          3,
                          3
                        ],
                        "strides": [
                          1,
                          1
                        ],
                        "padding": "same",
                        "data_format": "channels_last",
                        "dilation_rate": [
                          1,
                          1
                        ],
                        "groups": 1,
                        "activation": "linear",
                        "use_bias": false,
                        "kernel_initializer": {
                          "class_name": "GlorotUniform",
                          "config": {
                            "seed": null
                          }
                        },
                        "bias_initializer": {
                          "class_name": "Zeros",
                          "config": {}
                        },
                        "kernel_regularizer": {
                          "class_name": "L2",
                          "config": {
                            "l2": 9.999999747378752e-05
                          }
                        },
                        "bias_regularizer": null,
                        "activity_regularizer": null,
                        "kernel_constraint": null,
                        "bias_constraint": null
                      },
                      "name": "conv2d_16",
                      "inbound_nodes": [
                        [
                          [
                            "activation_15",
                            0,
                            0,
                            {}
                          ]
                        ]
                      ]
                    },
                    {
                      "class_name": "Dropout",
                      "config": {
                        "name": "dropout_15",
                        "trainable": true,
                        "dtype": "float32",
                        "rate": 0.2,
                        "noise_shape": null,
                        "seed": null
                      },
                      "name": "dropout_15",
                      "inbound_nodes": [
                        [
                          [
                            "conv2d_16",
                            0,
                            0,
                            {}
                          ]
                        ]
                      ]
                    },
                    {
                      "class_name": "Concatenate",
                      "config": {
                        "name": "concatenate_13",
                        "trainable": true,
                        "dtype": "float32",
                        "axis": -1
                      },
                      "name": "concatenate_13",
                      "inbound_nodes": [
                        [
                          [
                            "average_pooling2d_1",
                            0,
                            0,
                            {}
                          ],
                          [
                            "dropout_14",
                            0,
                            0,
                            {}
                          ],
                          [
                            "dropout_15",
                            0,
                            0,
                            {}
                          ]
                        ]
                      ]
                    },
                    {
                      "class_name": "BatchNormalization",
                      "config": {
                        "name": "batch_normalization_16",
                        "trainable": true,
                        "dtype": "float32",
                        "axis": [
                          3
                        ],
                        "momentum": 0.99,
                        "epsilon": 0.001,
                        "center": true,
                        "scale": true,
                        "beta_initializer": {
                          "class_name": "Zeros",
                          "config": {}
                        },
                        "gamma_initializer": {
                          "class_name": "Ones",
                          "config": {}
                        },
                        "moving_mean_initializer": {
                          "class_name": "Zeros",
                          "config": {}
                        },
                        "moving_variance_initializer": {
                          "class_name": "Ones",
                          "config": {}
                        },
                        "beta_regularizer": {
                          "class_name": "L2",
                          "config": {
                            "l2": 9.999999747378752e-05
                          }
                        },
                        "gamma_regularizer": {
                          "class_name": "L2",
                          "config": {
                            "l2": 9.999999747378752e-05
                          }
                        },
                        "beta_constraint": null,
                        "gamma_constraint": null
                      },
                      "name": "batch_normalization_16",
                      "inbound_nodes": [
                        [
                          [
                            "concatenate_13",
                            0,
                            0,
                            {}
                          ]
                        ]
                      ]
                    },
                    {
                      "class_name": "Activation",
                      "config": {
                        "name": "activation_16",
                        "trainable": true,
                        "dtype": "float32",
                        "activation": "elu"
                      },
                      "name": "activation_16",
                      "inbound_nodes": [
                        [
                          [
                            "batch_normalization_16",
                            0,
                            0,
                            {}
                          ]
                        ]
                      ]
                    },
                    {
                      "class_name": "Conv2D",
                      "config": {
                        "name": "conv2d_17",
                        "trainable": true,
                        "dtype": "float32",
                        "filters": 8,
                        "kernel_size": [
                          3,
                          3
                        ],
                        "strides": [
                          1,
                          1
                        ],
                        "padding": "same",
                        "data_format": "channels_last",
                        "dilation_rate": [
                          1,
                          1
                        ],
                        "groups": 1,
                        "activation": "linear",
                        "use_bias": false,
                        "kernel_initializer": {
                          "class_name": "GlorotUniform",
                          "config": {
                            "seed": null
                          }
                        },
                        "bias_initializer": {
                          "class_name": "Zeros",
                          "config": {}
                        },
                        "kernel_regularizer": {
                          "class_name": "L2",
                          "config": {
                            "l2": 9.999999747378752e-05
                          }
                        },
                        "bias_regularizer": null,
                        "activity_regularizer": null,
                        "kernel_constraint": null,
                        "bias_constraint": null
                      },
                      "name": "conv2d_17",
                      "inbound_nodes": [
                        [
                          [
                            "activation_16",
                            0,
                            0,
                            {}
                          ]
                        ]
                      ]
                    },
                    {
                      "class_name": "Dropout",
                      "config": {
                        "name": "dropout_16",
                        "trainable": true,
                        "dtype": "float32",
                        "rate": 0.2,
                        "noise_shape": null,
                        "seed": null
                      },
                      "name": "dropout_16",
                      "inbound_nodes": [
                        [
                          [
                            "conv2d_17",
                            0,
                            0,
                            {}
                          ]
                        ]
                      ]
                    },
                    {
                      "class_name": "Concatenate",
                      "config": {
                        "name": "concatenate_14",
                        "trainable": true,
                        "dtype": "float32",
                        "axis": -1
                      },
                      "name": "concatenate_14",
                      "inbound_nodes": [
                        [
                          [
                            "average_pooling2d_1",
                            0,
                            0,
                            {}
                          ],
                          [
                            "dropout_14",
                            0,
                            0,
                            {}
                          ],
                          [
                            "dropout_15",
                            0,
                            0,
                            {}
                          ],
                          [
                            "dropout_16",
                            0,
                            0,
                            {}
                          ]
                        ]
                      ]
                    },
                    {
                      "class_name": "BatchNormalization",
                      "config": {
                        "name": "batch_normalization_17",
                        "trainable": true,
                        "dtype": "float32",
                        "axis": [
                          3
                        ],
                        "momentum": 0.99,
                        "epsilon": 0.001,
                        "center": true,
                        "scale": true,
                        "beta_initializer": {
                          "class_name": "Zeros",
                          "config": {}
                        },
                        "gamma_initializer": {
                          "class_name": "Ones",
                          "config": {}
                        },
                        "moving_mean_initializer": {
                          "class_name": "Zeros",
                          "config": {}
                        },
                        "moving_variance_initializer": {
                          "class_name": "Ones",
                          "config": {}
                        },
                        "beta_regularizer": {
                          "class_name": "L2",
                          "config": {
                            "l2": 9.999999747378752e-05
                          }
                        },
                        "gamma_regularizer": {
                          "class_name": "L2",
                          "config": {
                            "l2": 9.999999747378752e-05
                          }
                        },
                        "beta_constraint": null,
                        "gamma_constraint": null
                      },
                      "name": "batch_normalization_17",
                      "inbound_nodes": [
                        [
                          [
                            "concatenate_14",
                            0,
                            0,
                            {}
                          ]
                        ]
                      ]
                    },
                    {
                      "class_name": "Activation",
                      "config": {
                        "name": "activation_17",
                        "trainable": true,
                        "dtype": "float32",
                        "activation": "elu"
                      },
                      "name": "activation_17",
                      "inbound_nodes": [
                        [
                          [
                            "batch_normalization_17",
                            0,
                            0,
                            {}
                          ]
                        ]
                      ]
                    },
                    {
                      "class_name": "Conv2D",
                      "config": {
                        "name": "conv2d_18",
                        "trainable": true,
                        "dtype": "float32",
                        "filters": 8,
                        "kernel_size": [
                          3,
                          3
                        ],
                        "strides": [
                          1,
                          1
                        ],
                        "padding": "same",
                        "data_format": "channels_last",
                        "dilation_rate": [
                          1,
                          1
                        ],
                        "groups": 1,
                        "activation": "linear",
                        "use_bias": false,
                        "kernel_initializer": {
                          "class_name": "GlorotUniform",
                          "config": {
                            "seed": null
                          }
                        },
                        "bias_initializer": {
                          "class_name": "Zeros",
                          "config": {}
                        },
                        "kernel_regularizer": {
                          "class_name": "L2",
                          "config": {
                            "l2": 9.999999747378752e-05
                          }
                        },
                        "bias_regularizer": null,
                        "activity_regularizer": null,
                        "kernel_constraint": null,
                        "bias_constraint": null
                      },
                      "name": "conv2d_18",
                      "inbound_nodes": [
                        [
                          [
                            "activation_17",
                            0,
                            0,
                            {}
                          ]
                        ]
                      ]
                    },
                    {
                      "class_name": "Dropout",
                      "config": {
                        "name": "dropout_17",
                        "trainable": true,
                        "dtype": "float32",
                        "rate": 0.2,
                        "noise_shape": null,
                        "seed": null
                      },
                      "name": "dropout_17",
                      "inbound_nodes": [
                        [
                          [
                            "conv2d_18",
                            0,
                            0,
                            {}
                          ]
                        ]
                      ]
                    },
                    {
                      "class_name": "Concatenate",
                      "config": {
                        "name": "concatenate_15",
                        "trainable": true,
                        "dtype": "float32",
                        "axis": -1
                      },
                      "name": "concatenate_15",
                      "inbound_nodes": [
                        [
                          [
                            "average_pooling2d_1",
                            0,
                            0,
                            {}
                          ],
                          [
                            "dropout_14",
                            0,
                            0,
                            {}
                          ],
                          [
                            "dropout_15",
                            0,
                            0,
                            {}
                          ],
                          [
                            "dropout_16",
                            0,
                            0,
                            {}
                          ],
                          [
                            "dropout_17",
                            0,
                            0,
                            {}
                          ]
                        ]
                      ]
                    },
                    {
                      "class_name": "BatchNormalization",
                      "config": {
                        "name": "batch_normalization_18",
                        "trainable": true,
                        "dtype": "float32",
                        "axis": [
                          3
                        ],
                        "momentum": 0.99,
                        "epsilon": 0.001,
                        "center": true,
                        "scale": true,
                        "beta_initializer": {
                          "class_name": "Zeros",
                          "config": {}
                        },
                        "gamma_initializer": {
                          "class_name": "Ones",
                          "config": {}
                        },
                        "moving_mean_initializer": {
                          "class_name": "Zeros",
                          "config": {}
                        },
                        "moving_variance_initializer": {
                          "class_name": "Ones",
                          "config": {}
                        },
                        "beta_regularizer": {
                          "class_name": "L2",
                          "config": {
                            "l2": 9.999999747378752e-05
                          }
                        },
                        "gamma_regularizer": {
                          "class_name": "L2",
                          "config": {
                            "l2": 9.999999747378752e-05
                          }
                        },
                        "beta_constraint": null,
                        "gamma_constraint": null
                      },
                      "name": "batch_normalization_18",
                      "inbound_nodes": [
                        [
                          [
                            "concatenate_15",
                            0,
                            0,
                            {}
                          ]
                        ]
                      ]
                    },
                    {
                      "class_name": "Activation",
                      "config": {
                        "name": "activation_18",
                        "trainable": true,
                        "dtype": "float32",
                        "activation": "elu"
                      },
                      "name": "activation_18",
                      "inbound_nodes": [
                        [
                          [
                            "batch_normalization_18",
                            0,
                            0,
                            {}
                          ]
                        ]
                      ]
                    },
                    {
                      "class_name": "Conv2D",
                      "config": {
                        "name": "conv2d_19",
                        "trainable": true,
                        "dtype": "float32",
                        "filters": 8,
                        "kernel_size": [
                          3,
                          3
                        ],
                        "strides": [
                          1,
                          1
                        ],
                        "padding": "same",
                        "data_format": "channels_last",
                        "dilation_rate": [
                          1,
                          1
                        ],
                        "groups": 1,
                        "activation": "linear",
                        "use_bias": false,
                        "kernel_initializer": {
                          "class_name": "GlorotUniform",
                          "config": {
                            "seed": null
                          }
                        },
                        "bias_initializer": {
                          "class_name": "Zeros",
                          "config": {}
                        },
                        "kernel_regularizer": {
                          "class_name": "L2",
                          "config": {
                            "l2": 9.999999747378752e-05
                          }
                        },
                        "bias_regularizer": null,
                        "activity_regularizer": null,
                        "kernel_constraint": null,
                        "bias_constraint": null
                      },
                      "name": "conv2d_19",
                      "inbound_nodes": [
                        [
                          [
                            "activation_18",
                            0,
                            0,
                            {}
                          ]
                        ]
                      ]
                    },
                    {
                      "class_name": "Dropout",
                      "config": {
                        "name": "dropout_18",
                        "trainable": true,
                        "dtype": "float32",
                        "rate": 0.2,
                        "noise_shape": null,
                        "seed": null
                      },
                      "name": "dropout_18",
                      "inbound_nodes": [
                        [
                          [
                            "conv2d_19",
                            0,
                            0,
                            {}
                          ]
                        ]
                      ]
                    },
                    {
                      "class_name": "Concatenate",
                      "config": {
                        "name": "concatenate_16",
                        "trainable": true,
                        "dtype": "float32",
                        "axis": -1
                      },
                      "name": "concatenate_16",
                      "inbound_nodes": [
                        [
                          [
                            "average_pooling2d_1",
                            0,
                            0,
                            {}
                          ],
                          [
                            "dropout_14",
                            0,
                            0,
                            {}
                          ],
                          [
                            "dropout_15",
                            0,
                            0,
                            {}
                          ],
                          [
                            "dropout_16",
                            0,
                            0,
                            {}
                          ],
                          [
                            "dropout_17",
                            0,
                            0,
                            {}
                          ],
                          [
                            "dropout_18",
                            0,
                            0,
                            {}
                          ]
                        ]
                      ]
                    },
                    {
                      "class_name": "BatchNormalization",
                      "config": {
                        "name": "batch_normalization_19",
                        "trainable": true,
                        "dtype": "float32",
                        "axis": [
                          3
                        ],
                        "momentum": 0.99,
                        "epsilon": 0.001,
                        "center": true,
                        "scale": true,
                        "beta_initializer": {
                          "class_name": "Zeros",
                          "config": {}
                        },
                        "gamma_initializer": {
                          "class_name": "Ones",
                          "config": {}
                        },
                        "moving_mean_initializer": {
                          "class_name": "Zeros",
                          "config": {}
                        },
                        "moving_variance_initializer": {
                          "class_name": "Ones",
                          "config": {}
                        },
                        "beta_regularizer": {
                          "class_name": "L2",
                          "config": {
                            "l2": 9.999999747378752e-05
                          }
                        },
                        "gamma_regularizer": {
                          "class_name": "L2",
                          "config": {
                            "l2": 9.999999747378752e-05
                          }
                        },
                        "beta_constraint": null,
                        "gamma_constraint": null
                      },
                      "name": "batch_normalization_19",
                      "inbound_nodes": [
                        [
                          [
                            "concatenate_16",
                            0,
                            0,
                            {}
                          ]
                        ]
                      ]
                    },
                    {
                      "class_name": "Activation",
                      "config": {
                        "name": "activation_19",
                        "trainable": true,
                        "dtype": "float32",
                        "activation": "elu"
                      },
                      "name": "activation_19",
                      "inbound_nodes": [
                        [
                          [
                            "batch_normalization_19",
                            0,
                            0,
                            {}
                          ]
                        ]
                      ]
                    },
                    {
                      "class_name": "Conv2D",
                      "config": {
                        "name": "conv2d_20",
                        "trainable": true,
                        "dtype": "float32",
                        "filters": 8,
                        "kernel_size": [
                          3,
                          3
                        ],
                        "strides": [
                          1,
                          1
                        ],
                        "padding": "same",
                        "data_format": "channels_last",
                        "dilation_rate": [
                          1,
                          1
                        ],
                        "groups": 1,
                        "activation": "linear",
                        "use_bias": false,
                        "kernel_initializer": {
                          "class_name": "GlorotUniform",
                          "config": {
                            "seed": null
                          }
                        },
                        "bias_initializer": {
                          "class_name": "Zeros",
                          "config": {}
                        },
                        "kernel_regularizer": {
                          "class_name": "L2",
                          "config": {
                            "l2": 9.999999747378752e-05
                          }
                        },
                        "bias_regularizer": null,
                        "activity_regularizer": null,
                        "kernel_constraint": null,
                        "bias_constraint": null
                      },
                      "name": "conv2d_20",
                      "inbound_nodes": [
                        [
                          [
                            "activation_19",
                            0,
                            0,
                            {}
                          ]
                        ]
                      ]
                    },
                    {
                      "class_name": "Dropout",
                      "config": {
                        "name": "dropout_19",
                        "trainable": true,
                        "dtype": "float32",
                        "rate": 0.2,
                        "noise_shape": null,
                        "seed": null
                      },
                      "name": "dropout_19",
                      "inbound_nodes": [
                        [
                          [
                            "conv2d_20",
                            0,
                            0,
                            {}
                          ]
                        ]
                      ]
                    },
                    {
                      "class_name": "Concatenate",
                      "config": {
                        "name": "concatenate_17",
                        "trainable": true,
                        "dtype": "float32",
                        "axis": -1
                      },
                      "name": "concatenate_17",
                      "inbound_nodes": [
                        [
                          [
                            "average_pooling2d_1",
                            0,
                            0,
                            {}
                          ],
                          [
                            "dropout_14",
                            0,
                            0,
                            {}
                          ],
                          [
                            "dropout_15",
                            0,
                            0,
                            {}
                          ],
                          [
                            "dropout_16",
                            0,
                            0,
                            {}
                          ],
                          [
                            "dropout_17",
                            0,
                            0,
                            {}
                          ],
                          [
                            "dropout_18",
                            0,
                            0,
                            {}
                          ],
                          [
                            "dropout_19",
                            0,
                            0,
                            {}
                          ]
                        ]
                      ]
                    },
                    {
                      "class_name": "BatchNormalization",
                      "config": {
                        "name": "batch_normalization_20",
                        "trainable": true,
                        "dtype": "float32",
                        "axis": [
                          3
                        ],
                        "momentum": 0.99,
                        "epsilon": 0.001,
                        "center": true,
                        "scale": true,
                        "beta_initializer": {
                          "class_name": "Zeros",
                          "config": {}
                        },
                        "gamma_initializer": {
                          "class_name": "Ones",
                          "config": {}
                        },
                        "moving_mean_initializer": {
                          "class_name": "Zeros",
                          "config": {}
                        },
                        "moving_variance_initializer": {
                          "class_name": "Ones",
                          "config": {}
                        },
                        "beta_regularizer": {
                          "class_name": "L2",
                          "config": {
                            "l2": 9.999999747378752e-05
                          }
                        },
                        "gamma_regularizer": {
                          "class_name": "L2",
                          "config": {
                            "l2": 9.999999747378752e-05
                          }
                        },
                        "beta_constraint": null,
                        "gamma_constraint": null
                      },
                      "name": "batch_normalization_20",
                      "inbound_nodes": [
                        [
                          [
                            "concatenate_17",
                            0,
                            0,
                            {}
                          ]
                        ]
                      ]
                    },
                    {
                      "class_name": "Activation",
                      "config": {
                        "name": "activation_20",
                        "trainable": true,
                        "dtype": "float32",
                        "activation": "elu"
                      },
                      "name": "activation_20",
                      "inbound_nodes": [
                        [
                          [
                            "batch_normalization_20",
                            0,
                            0,
                            {}
                          ]
                        ]
                      ]
                    },
                    {
                      "class_name": "Conv2D",
                      "config": {
                        "name": "conv2d_21",
                        "trainable": true,
                        "dtype": "float32",
                        "filters": 160,
                        "kernel_size": [
                          1,
                          1
                        ],
                        "strides": [
                          1,
                          1
                        ],
                        "padding": "same",
                        "data_format": "channels_last",
                        "dilation_rate": [
                          1,
                          1
                        ],
                        "groups": 1,
                        "activation": "linear",
                        "use_bias": false,
                        "kernel_initializer": {
                          "class_name": "GlorotUniform",
                          "config": {
                            "seed": null
                          }
                        },
                        "bias_initializer": {
                          "class_name": "Zeros",
                          "config": {}
                        },
                        "kernel_regularizer": {
                          "class_name": "L2",
                          "config": {
                            "l2": 9.999999747378752e-05
                          }
                        },
                        "bias_regularizer": null,
                        "activity_regularizer": null,
                        "kernel_constraint": null,
                        "bias_constraint": null
                      },
                      "name": "conv2d_21",
                      "inbound_nodes": [
                        [
                          [
                            "activation_20",
                            0,
                            0,
                            {}
…
                          "config": {
                            "l2": 9.999999747378752e-05
                          }
                        },
                        "gamma_regularizer": {
                          "class_name": "L2",
                          "config": {
                            "l2": 9.999999747378752e-05
                          }
                        },
                        "beta_constraint": null,
                        "gamma_constraint": null
                      },
                      "name": "batch_normalization_33",
                      "inbound_nodes": [
                        [
                          [
                            "concatenate_28",
                            0,
                            0,
                            {}
                          ]
                        ]
                      ]
                    },
                    {
                      "class_name": "Activation",
                      "config": {
                        "name": "activation_33",
                        "trainable": true,
                        "dtype": "float32",
                        "activation": "elu"
                      },
                      "name": "activation_33",
                      "inbound_nodes": [
                        [
                          [
                            "batch_normalization_33",
                            0,
                            0,
                            {}
                          ]
                        ]
                      ]
                    },
                    {
                      "class_name": "Conv2D",
                      "config": {
                        "name": "conv2d_34",
                        "trainable": true,
                        "dtype": "float32",
                        "filters": 8,
                        "kernel_size": [
                          3,
                          3
                        ],
                        "strides": [
                          1,
                          1
                        ],
                        "padding": "same",
                        "data_format": "channels_last",
                        "dilation_rate": [
                          1,
                          1
                        ],
                        "groups": 1,
                        "activation": "linear",
                        "use_bias": false,
                        "kernel_initializer": {
                          "class_name": "GlorotUniform",
                          "config": {
                            "seed": null
                          }
                        },
                        "bias_initializer": {
                          "class_name": "Zeros",
                          "config": {}
                        },
                        "kernel_regularizer": {
                          "class_name": "L2",
                          "config": {
                            "l2": 9.999999747378752e-05
                          }
                        },
                        "bias_regularizer": null,
                        "activity_regularizer": null,
                        "kernel_constraint": null,
                        "bias_constraint": null
                      },
                      "name": "conv2d_34",
                      "inbound_nodes": [
                        [
                          [
                            "activation_33",
                            0,
                            0,
                            {}
                          ]
                        ]
                      ]
                    },
                    {
                      "class_name": "Dropout",
                      "config": {
                        "name": "dropout_33",
                        "trainable": true,
                        "dtype": "float32",
                        "rate": 0.2,
                        "noise_shape": null,
                        "seed": null
                      },
                      "name": "dropout_33",
                      "inbound_nodes": [
                        [
                          [
                            "conv2d_34",
                            0,
                            0,
                            {}
                          ]
                        ]
                      ]
                    },
                    {
                      "class_name": "Concatenate",
                      "config": {
                        "name": "concatenate_29",
                        "trainable": true,
                        "dtype": "float32",
                        "axis": -1
                      },
                      "name": "concatenate_29",
                      "inbound_nodes": [
                        [
                          [
                            "average_pooling2d_3",
                            0,
                            0,
                            {}
                          ],
                          [
                            "dropout_28",
                            0,
                            0,
                            {}
                          ],
                          [
                            "dropout_29",
                            0,
                            0,
                            {}
                          ],
                          [
                            "dropout_30",
                            0,
                            0,
                            {}
                          ],
                          [
                            "dropout_31",
                            0,
                            0,
                            {}
                          ],
                          [
                            "dropout_32",
                            0,
                            0,
                            {}
                          ],
                          [
                            "dropout_33",
                            0,
                            0,
                            {}
                          ]
                        ]
                      ]
                    },
                    {
                      "class_name": "BatchNormalization",
                      "config": {
                        "name": "batch_normalization_34",
                        "trainable": true,
                        "dtype": "float32",
                        "axis": [
                          3
                        ],
                        "momentum": 0.99,
                        "epsilon": 0.001,
                        "center": true,
                        "scale": true,
                        "beta_initializer": {
                          "class_name": "Zeros",
                          "config": {}
                        },
                        "gamma_initializer": {
                          "class_name": "Ones",
                          "config": {}
                        },
                        "moving_mean_initializer": {
                          "class_name": "Zeros",
                          "config": {}
                        },
                        "moving_variance_initializer": {
                          "class_name": "Ones",
                          "config": {}
                        },
                        "beta_regularizer": {
                          "class_name": "L2",
                          "config": {
                            "l2": 9.999999747378752e-05
                          }
                        },
                        "gamma_regularizer": {
                          "class_name": "L2",
                          "config": {
                            "l2": 9.999999747378752e-05
                          }
                        },
                        "beta_constraint": null,
                        "gamma_constraint": null
                      },
                      "name": "batch_normalization_34",
                      "inbound_nodes": [
                        [
                          [
                            "concatenate_29",
                            0,
                            0,
                            {}
                          ]
                        ]
                      ]
                    },
                    {
                      "class_name": "Activation",
                      "config": {
                        "name": "activation_34",
                        "trainable": true,
                        "dtype": "float32",
                        "activation": "elu"
                      },
                      "name": "activation_34",
                      "inbound_nodes": [
                        [
                          [
                            "batch_normalization_34",
                            0,
                            0,
                            {}
                          ]
                        ]
                      ]
                    },
                    {
                      "class_name": "GlobalAveragePooling2D",
                      "config": {
                        "name": "global_average_pooling2d",
                        "trainable": true,
                        "dtype": "float32",
                        "data_format": "channels_last"
                      },
                      "name": "global_average_pooling2d",
                      "inbound_nodes": [
                        [
                          [
                            "activation_34",
                            0,
                            0,
                            {}
                          ]
                        ]
                      ]
                    }
                  ],
                  "input_layers": [
                    [
                      "input_1",
                      0,
                      0
                    ]
                  ],
                  "output_layers": [
                    [
                      "global_average_pooling2d",
                      0,
                      0
                    ]
                  ]
                }
              }
            }
          },
          {
            "class_name": "Bidirectional",
            "config": {
              "name": "bidirectional",
              "trainable": true,
              "dtype": "float32",
              "layer": {
                "class_name": "LSTM",
                "config": {
                  "name": "bidirect_lstm_1",
                  "trainable": true,
                  "dtype": "float32",
                  "return_sequences": true,
                  "return_state": false,
                  "go_backwards": false,
                  "stateful": false,
                  "unroll": false,
                  "time_major": false,
                  "units": 128,
                  "activation": "tanh",
                  "recurrent_activation": "sigmoid",
                  "use_bias": true,
                  "kernel_initializer": {
                    "class_name": "GlorotUniform",
                    "config": {
                      "seed": null
                    }
                  },
                  "recurrent_initializer": {
                    "class_name": "Orthogonal",
                    "config": {
                      "gain": 1.0,
                      "seed": null
                    }
                  },
                  "bias_initializer": {
                    "class_name": "Zeros",
                    "config": {}
                  },
                  "unit_forget_bias": true,
                  "kernel_regularizer": null,
                  "recurrent_regularizer": null,
                  "bias_regularizer": null,
                  "activity_regularizer": null,
                  "kernel_constraint": null,
                  "recurrent_constraint": null,
                  "bias_constraint": null,
                  "dropout": 0.0,
                  "recurrent_dropout": 0.0,
                  "implementation": 2
                }
              },
              "merge_mode": "concat"
            }
          },
          {
            "class_name": "Dropout",
            "config": {
              "name": "dropout_lstm_1",
              "trainable": true,
              "dtype": "float32",
              "rate": 0.35,
              "noise_shape": null,
              "seed": null
            }
          },
          {
            "class_name": "Bidirectional",
            "config": {
              "name": "bidirectional_1",
              "trainable": true,
              "dtype": "float32",
              "layer": {
                "class_name": "LSTM",
                "config": {
                  "name": "bidirect_lstm_2",
                  "trainable": true,
                  "dtype": "float32",
                  "return_sequences": false,
                  "return_state": false,
                  "go_backwards": false,
                  "stateful": false,
                  "unroll": false,
                  "time_major": false,
                  "units": 64,
                  "activation": "tanh",
                  "recurrent_activation": "sigmoid",
                  "use_bias": true,
                  "kernel_initializer": {
                    "class_name": "GlorotUniform",
                    "config": {
                      "seed": null
                    }
                  },
                  "recurrent_initializer": {
                    "class_name": "Orthogonal",
                    "config": {
                      "gain": 1.0,
                      "seed": null
                    }
                  },
                  "bias_initializer": {
                    "class_name": "Zeros",
                    "config": {}
                  },
                  "unit_forget_bias": true,
                  "kernel_regularizer": null,
                  "recurrent_regularizer": null,
                  "bias_regularizer": null,
                  "activity_regularizer": null,
                  "kernel_constraint": null,
                  "recurrent_constraint": null,
                  "bias_constraint": null,
                  "dropout": 0.0,
                  "recurrent_dropout": 0.0,
                  "implementation": 2
                }
              },
              "merge_mode": "concat"
            }
          },
          {
            "class_name": "Dropout",
            "config": {
              "name": "dropout_lstm_2",
              "trainable": true,
              "dtype": "float32",
              "rate": 0.45,
              "noise_shape": null,
              "seed": null
            }
          },
          {
            "class_name": "Dense",
            "config": {
              "name": "dense_1",
              "trainable": true,
              "dtype": "float32",
              "units": 128,
              "activation": "elu",
              "use_bias": true,
              "kernel_initializer": {
                "class_name": "HeNormal",
                "config": {
                  "seed": null
                }
              },
              "bias_initializer": {
                "class_name": "Zeros",
                "config": {}
              },
              "kernel_regularizer": null,
              "bias_regularizer": null,
              "activity_regularizer": null,
              "kernel_constraint": null,
              "bias_constraint": null
            }
          },
          {
            "class_name": "BatchNormalization",
            "config": {
              "name": "batchnorm_lstm_1",
              "trainable": true,
              "dtype": "float32",
              "axis": [
                1
              ],
              "momentum": 0.99,
              "epsilon": 0.001,
              "center": true,
              "scale": true,
              "beta_initializer": {
                "class_name": "Zeros",
                "config": {}
              },
              "gamma_initializer": {
                "class_name": "Ones",
                "config": {}
              },
              "moving_mean_initializer": {
                "class_name": "Zeros",
                "config": {}
              },
              "moving_variance_initializer": {
                "class_name": "Ones",
                "config": {}
              },
              "beta_regularizer": null,
              "gamma_regularizer": null,
              "beta_constraint": null,
              "gamma_constraint": null
            }
          },
          {
            "class_name": "Dropout",
            "config": {
              "name": "dropout_lstm_3",
              "trainable": true,
              "dtype": "float32",
              "rate": 0.7,
              "noise_shape": null,
              "seed": null
            }
          },
          {
            "class_name": "Dense",
            "config": {
              "name": "out_layer",
              "trainable": true,
              "dtype": "float32",
              "units": 5,
              "activation": "softmax",
              "use_bias": true,
              "kernel_initializer": {
                "class_name": "GlorotUniform",
                "config": {
                  "seed": null
                }
              },
              "bias_initializer": {
                "class_name": "Zeros",
                "config": {}
              },
              "kernel_regularizer": null,
              "bias_regularizer": null,
              "activity_regularizer": null,
              "kernel_constraint": null,
              "bias_constraint": null
            }
          }
        ]
      }
    },
    "training_config": {
      "loss": "categorical_crossentropy",
      "metrics": [
        [
          {
            "class_name": "MeanMetricWrapper",
            "config": {
              "name": "accuracy",
              "dtype": "float32",
              "fn": "categorical_accuracy"
            }
          }
        ]
      ],
      "weighted_metrics": null,
      "loss_weights": null,
      "optimizer_config": {
        "class_name": "Nadam",
        "config": {
          "name": "Nadam",
          "learning_rate": 4.3980468035442755e-05,
          "decay": 0.004000000189989805,
          "beta_1": 0.8999999761581421,
          "beta_2": 0.9990000128746033,
          "epsilon": 1e-07
        }
      }
    }
  },
  "weightsManifest": [
    {
      "paths": [
        "group1-shard1of1.bin"
      ],
      "weights": [
        {
          "name": "batchnorm_lstm_1/gamma",
          "shape": [
            128
          ],
          "dtype": "float32"
        },
        {
          "name": "batchnorm_lstm_1/beta",
          "shape": [
            128
          ],
          "dtype": "float32"
        },
        {
          "name": "batchnorm_lstm_1/moving_mean",
          "shape": [
            128
          ],
          "dtype": "float32"
        },
        {
          "name": "batchnorm_lstm_1/moving_variance",
          "shape": [
            128
          ],
          "dtype": "float32"
        },
        {
          "name": "bidirectional/forward_bidirect_lstm_1/lstm_cell_1/kernel",
          "shape": [
            256,
            512
          ],
          "dtype": "float32"
        },
        {
          "name": "bidirectional/forward_bidirect_lstm_1/lstm_cell_1/recurrent_kernel",
          "shape": [
            128,
            512
          ],
          "dtype": "float32"
        },
        {
          "name": "bidirectional/forward_bidirect_lstm_1/lstm_cell_1/bias",
          "shape": [
            512
          ],
          "dtype": "float32"
        },
        {
          "name": "bidirectional/backward_bidirect_lstm_1/lstm_cell_2/kernel",
          "shape": [
            256,
            512
          ],
          "dtype": "float32"
        },
        {
          "name": "bidirectional/backward_bidirect_lstm_1/lstm_cell_2/recurrent_kernel",
          "shape": [
            128,
            512
          ],
          "dtype": "float32"
        },
        {
          "name": "bidirectional/backward_bidirect_lstm_1/lstm_cell_2/bias",
          "shape": [
            512
          ],
          "dtype": "float32"
        },
        {
          "name": "bidirectional_1/forward_bidirect_lstm_2/lstm_cell_4/kernel",
          "shape": [
            256,
            256
          ],
          "dtype": "float32"
        },
        {
          "name": "bidirectional_1/forward_bidirect_lstm_2/lstm_cell_4/recurrent_kernel",
          "shape": [
            64,
            256
          ],
          "dtype": "float32"
        },
        {
          "name": "bidirectional_1/forward_bidirect_lstm_2/lstm_cell_4/bias",
          "shape": [
            256
          ],
          "dtype": "float32"
        },
        {
          "name": "bidirectional_1/backward_bidirect_lstm_2/lstm_cell_5/kernel",
          "shape": [
            256,
            256
          ],
          "dtype": "float32"
        },
        {
          "name": "bidirectional_1/backward_bidirect_lstm_2/lstm_cell_5/recurrent_kernel",
          "shape": [
            64,
            256
          ],
          "dtype": "float32"
        },
        {
          "name": "bidirectional_1/backward_bidirect_lstm_2/lstm_cell_5/bias",
          "shape": [
            256
          ],
          "dtype": "float32"
        },
        {
          "name": "dense_1/kernel",
          "shape": [
            128,
            128
          ],
          "dtype": "float32"
        },
        {
          "name": "dense_1/bias",
          "shape": [
            128
          ],
          "dtype": "float32"
        },
        {
          "name": "out_layer/kernel",
          "shape": [
            128,
            5
          ],
          "dtype": "float32"
        },
        {
          "name": "out_layer/bias",
          "shape": [
            5
          ],
          "dtype": "float32"
        },
        {
          "name": "conv2d/kernel",
          "shape": [
            3,
            3,
            1,
            16
          ],
          "dtype": "float32"
        },
        {
          "name": "batch_normalization/gamma",
          "shape": [
            16
          ],
          "dtype": "float32"
        },
        {
          "name": "batch_normalization/beta",
          "shape": [
            16
          ],
          "dtype": "float32"
        },
        {
          "name": "conv2d_1/kernel",
          "shape": [
            3,
            3,
            16,
            8
          ],
          "dtype": "float32"
        },
        {
          "name": "batch_normalization_1/gamma",
          "shape": [
            24
          ],
          "dtype": "float32"
        },
        {
          "name": "batch_normalization_1/beta",
          "shape": [
            24
          ],
          "dtype": "float32"
        },
        {
          "name": "conv2d_2/kernel",
          "shape": [
            3,
            3,
            24,
            8
          ],
          "dtype": "float32"
        },
        {
          "name": "batch_normalization_2/gamma",
          "shape": [
            32
          ],
          "dtype": "float32"
        },
        {
          "name": "batch_normalization_2/beta",
          "shape": [
            32
          ],
          "dtype": "float32"
        },
        {
          "name": "conv2d_3/kernel",
          "shape": [
            3,
            3,
            32,
            8
          ],
          "dtype": "float32"
        },
        {
          "name": "batch_normalization_3/gamma",
          "shape": [
            40
          ],
          "dtype": "float32"
        },
        {
          "name": "batch_normalization_3/beta",
          "shape": [
            40
          ],
          "dtype": "float32"
        },
        {
          "name": "conv2d_4/kernel",
          "shape": [
            3,
            3,
            40,
            8
          ],
          "dtype": "float32"
        },
        {
          "name": "batch_normalization_4/gamma",
          "shape": [
            48
          ],
          "dtype": "float32"
        },
        {
          "name": "batch_normalization_4/beta",
          "shape": [
            48
          ],
          "dtype": "float32"
        },
        {
          "name": "conv2d_5/kernel",
          "shape": [
            3,
            3,
            48,
            8
          ],
          "dtype": "float32"
        },
        {
          "name": "batch_normalization_5/gamma",
          "shape": [
            56
          ],
          "dtype": "float32"
        },
        {
          "name": "batch_normalization_5/beta",
          "shape": [
            56
          ],
          "dtype": "float32"
        },
        {
          "name": "conv2d_6/kernel",
          "shape": [
            3,
            3,
            56,
            8
          ],
          "dtype": "float32"
        },
        {
          "name": "batch_normalization_6/gamma",
          "shape": [
            64
          ],
          "dtype": "float32"
        },
        {
          "name": "batch_normalization_6/beta",
          "shape": [
            64
          ],
          "dtype": "float32"
        },
        {
          "name": "conv2d_7/kernel",
          "shape": [
            1,
            1,
            64,
            64
          ],
          "dtype": "float32"
        },
        {
          "name": "batch_normalization_7/gamma",
          "shape": [
            64
          ],
          "dtype": "float32"
        },
        {
          "name": "batch_normalization_7/beta",
          "shape": [
            64
          ],
          "dtype": "float32"
        },
        {
          "name": "conv2d_8/kernel",
          "shape": [
            3,
            3,
            64,
            8
          ],
          "dtype": "float32"
        },
        {
          "name": "batch_normalization_8/gamma",
          "shape": [
            72
          ],
          "dtype": "float32"
        },
        {
          "name": "batch_normalization_8/beta",
          "shape": [
            72
          ],
          "dtype": "float32"
        },
        {
          "name": "conv2d_9/kernel",
          "shape": [
            3,
            3,
            72,
            8
          ],
          "dtype": "float32"
        },
        {
          "name": "batch_normalization_9/gamma",
          "shape": [
            80
          ],
          "dtype": "float32"
        },
        {
          "name": "batch_normalization_9/beta",
          "shape": [
            80
          ],
          "dtype": "float32"
        },
        {
          "name": "conv2d_10/kernel",
          "shape": [
            3,
            3,
            80,
            8
          ],
          "dtype": "float32"
        },
        {
          "name": "batch_normalization_10/gamma",
          "shape": [
            88
          ],
          "dtype": "float32"
        },
        {
          "name": "batch_normalization_10/beta",
          "shape": [
            88
          ],
          "dtype": "float32"
        },
        {
          "name": "conv2d_11/kernel",
          "shape": [
            3,
            3,
            88,
            8
          ],
          "dtype": "float32"
        },
        {
          "name": "batch_normalization_11/gamma",
          "shape": [
            96
          ],
          "dtype": "float32"
        },
        {
          "name": "batch_normalization_11/beta",
          "shape": [
            96
          ],
          "dtype": "float32"
        },
        {
          "name": "conv2d_12/kernel",
          "shape": [
            3,
            3,
            96,
            8
          ],
          "dtype": "float32"
        },
        {
          "name": "batch_normalization_12/gamma",
          "shape": [
            104
          ],
          "dtype": "float32"
        },
        {
          "name": "batch_normalization_12/beta",
          "shape": [
            104
          ],
          "dtype": "float32"
        },
        {
          "name": "conv2d_13/kernel",
          "shape": [
            3,
            3,
            104,
            8
          ],
          "dtype": "float32"
        },
        {
          "name": "batch_normalization_13/gamma",
          "shape": [
            112
          ],
          "dtype": "float32"
        },
        {
          "name": "batch_normalization_13/beta",
          "shape": [
            112
          ],
          "dtype": "float32"
        },
        {
          "name": "conv2d_14/kernel",
          "shape": [
            1,
            1,
            112,
            112
          ],
          "dtype": "float32"
        },
        {
          "name": "batch_normalization_14/gamma",
          "shape": [
            112
          ],
          "dtype": "float32"
        },
        {
          "name": "batch_normalization_14/beta",
          "shape": [
            112
          ],
          "dtype": "float32"
        },
        {
          "name": "conv2d_15/kernel",
          "shape": [
            3,
            3,
            112,
            8
          ],
          "dtype": "float32"
        },
        {
          "name": "batch_normalization_15/gamma",
          "shape": [
            120
          ],
          "dtype": "float32"
        },
        {
          "name": "batch_normalization_15/beta",
          "shape": [
            120
          ],
          "dtype": "float32"
        },
        {
          "name": "conv2d_16/kernel",
          "shape": [
            3,
            3,
            120,
            8
          ],
          "dtype": "float32"
        },
        {
          "name": "batch_normalization_16/gamma",
          "shape": [
            128
          ],
          "dtype": "float32"
        },
        {
          "name": "batch_normalization_16/beta",
          "shape": [
            128
          ],
          "dtype": "float32"
        },
        {
          "name": "conv2d_17/kernel",
          "shape": [
            3,
            3,
            128,
            8
          ],
          "dtype": "float32"
        },
        {
          "name": "batch_normalization_17/gamma",
          "shape": [
            136
          ],
          "dtype": "float32"
        },
        {
          "name": "batch_normalization_17/beta",
          "shape": [
            136
          ],
          "dtype": "float32"
        },
        {
          "name": "conv2d_18/kernel",
          "shape": [
            3,
            3,
            136,
            8
          ],
          "dtype": "float32"
        },
        {
          "name": "batch_normalization_18/gamma",
          "shape": [
            144
          ],
          "dtype": "float32"
        },
        {
          "name": "batch_normalization_18/beta",
          "shape": [
            144
          ],
          "dtype": "float32"
        },
        {
          "name": "conv2d_19/kernel",
          "shape": [
            3,
            3,
            144,
            8
          ],
          "dtype": "float32"
        },
        {
          "name": "batch_normalization_19/gamma",
          "shape": [
            152
          ],
          "dtype": "float32"
        },
        {
          "name": "batch_normalization_19/beta",
          "shape": [
            152
          ],
          "dtype": "float32"
        },
        {
          "name": "conv2d_20/kernel",
          "shape": [
            3,
            3,
            152,
            8
          ],
          "dtype": "float32"
        },
        {
          "name": "batch_normalization_20/gamma",
          "shape": [
            160
          ],
          "dtype": "float32"
        },
        {
          "name": "batch_normalization_20/beta",
          "shape": [
            160
          ],
          "dtype": "float32"
        },
        {
          "name": "conv2d_21/kernel",
          "shape": [
            1,
            1,
            160,
            160
          ],
          "dtype": "float32"
        },
        {
          "name": "batch_normalization_21/gamma",
          "shape": [
            160
          ],
          "dtype": "float32"
        },
        {
          "name": "batch_normalization_21/beta",
          "shape": [
            160
          ],
          "dtype": "float32"
        },
        {
          "name": "conv2d_22/kernel",
          "shape": [
            3,
            3,
            160,
            8
          ],
          "dtype": "float32"
        },
        {
          "name": "batch_normalization_22/gamma",
          "shape": [
            168
          ],
          "dtype": "float32"
        },
        {
          "name": "batch_normalization_22/beta",
          "shape": [
            168
          ],
          "dtype": "float32"
        },
        {
          "name": "conv2d_23/kernel",
          "shape": [
            3,
            3,
            168,
            8
          ],
          "dtype": "float32"
        },
        {
          "name": "batch_normalization_23/gamma",
          "shape": [
            176
          ],
          "dtype": "float32"
        },
        {
          "name": "batch_normalization_23/beta",
          "shape": [
            176
          ],
          "dtype": "float32"
        },
        {
          "name": "conv2d_24/kernel",
          "shape": [
            3,
            3,
            176,
            8
          ],
          "dtype": "float32"
        },
        {
          "name": "batch_normalization_24/gamma",
          "shape": [
            184
          ],
          "dtype": "float32"
        },
        {
          "name": "batch_normalization_24/beta",
          "shape": [
            184
          ],
          "dtype": "float32"
        },
        {
          "name": "conv2d_25/kernel",
          "shape": [
            3,
            3,
            184,
            8
          ],
          "dtype": "float32"
        },
        {
          "name": "batch_normalization_25/gamma",
          "shape": [
            192
          ],
          "dtype": "float32"
        },
        {
          "name": "batch_normalization_25/beta",
          "shape": [
            192
          ],
          "dtype": "float32"
        },
        {
          "name": "conv2d_26/kernel",
          "shape": [
            3,
            3,
            192,
            8
          ],
          "dtype": "float32"
        },
        {
          "name": "batch_normalization_26/gamma",
          "shape": [
            200
          ],
          "dtype": "float32"
        },
        {
          "name": "batch_normalization_26/beta",
          "shape": [
            200
          ],
          "dtype": "float32"
        },
        {
          "name": "conv2d_27/kernel",
          "shape": [
            3,
            3,
            200,
            8
          ],
          "dtype": "float32"
        },
        {
          "name": "batch_normalization_27/gamma",
          "shape": [
            208
          ],
          "dtype": "float32"
        },
        {
          "name": "batch_normalization_27/beta",
          "shape": [
            208
          ],
          "dtype": "float32"
        },
        {
          "name": "conv2d_28/kernel",
          "shape": [
            1,
            1,
            208,
            208
          ],
          "dtype": "float32"
        },
        {
          "name": "batch_normalization_28/gamma",
          "shape": [
            208
          ],
          "dtype": "float32"
        },
        {
          "name": "batch_normalization_28/beta",
          "shape": [
            208
          ],
          "dtype": "float32"
        },
        {
          "name": "conv2d_29/kernel",
          "shape": [
            3,
            3,
            208,
            8
          ],
          "dtype": "float32"
        },
        {
          "name": "batch_normalization_29/gamma",
          "shape": [
            216
          ],
          "dtype": "float32"
        },
        {
          "name": "batch_normalization_29/beta",
          "shape": [
            216
          ],
          "dtype": "float32"
        },
        {
          "name": "conv2d_30/kernel",
          "shape": [
            3,
            3,
            216,
            8
          ],
          "dtype": "float32"
        },
        {
          "name": "batch_normalization_30/gamma",
          "shape": [
            224
          ],
          "dtype": "float32"
        },
        {
          "name": "batch_normalization_30/beta",
          "shape": [
            224
          ],
          "dtype": "float32"
        },
        {
          "name": "conv2d_31/kernel",
          "shape": [
            3,
            3,
            224,
            8
          ],
          "dtype": "float32"
        },
        {
          "name": "batch_normalization_31/gamma",
          "shape": [
            232
          ],
          "dtype": "float32"
        },
        {
          "name": "batch_normalization_31/beta",
          "shape": [
            232
          ],
          "dtype": "float32"
        },
        {
          "name": "conv2d_32/kernel",
          "shape": [
            3,
            3,
            232,
            8
          ],
          "dtype": "float32"
        },
        {
          "name": "batch_normalization_32/gamma",
          "shape": [
            240
          ],
          "dtype": "float32"
        },
        {
          "name": "batch_normalization_32/beta",
          "shape": [
            240
          ],
          "dtype": "float32"
        },
        {
          "name": "conv2d_33/kernel",
          "shape": [
            3,
            3,
            240,
            8
          ],
          "dtype": "float32"
        },
        {
          "name": "batch_normalization_33/gamma",
          "shape": [
            248
          ],
          "dtype": "float32"
        },
        {
          "name": "batch_normalization_33/beta",
          "shape": [
            248
          ],
          "dtype": "float32"
        },
        {
          "name": "conv2d_34/kernel",
          "shape": [
            3,
            3,
            248,
            8
          ],
          "dtype": "float32"
        },
        {
          "name": "batch_normalization_34/gamma",
          "shape": [
            256
          ],
          "dtype": "float32"
        },
        {
          "name": "batch_normalization_34/beta",
          "shape": [
            256
          ],
          "dtype": "float32"
        },
        {
          "name": "batch_normalization/moving_mean",
          "shape": [
            16
          ],
          "dtype": "float32"
        },
        {
          "name": "batch_normalization/moving_variance",
          "shape": [
            16
          ],
          "dtype": "float32"
        },
        {
          "name": "batch_normalization_1/moving_mean",
          "shape": [
            24
          ],
          "dtype": "float32"
        },
        {
          "name": "batch_normalization_1/moving_variance",
          "shape": [
            24
          ],
          "dtype": "float32"
        },
        {
          "name": "batch_normalization_2/moving_mean",
          "shape": [
            32
          ],
          "dtype": "float32"
        },
        {
          "name": "batch_normalization_2/moving_variance",
          "shape": [
            32
          ],
          "dtype": "float32"
        },
        {
          "name": "batch_normalization_3/moving_mean",
          "shape": [
            40
          ],
          "dtype": "float32"
        },
        {
          "name": "batch_normalization_3/moving_variance",
          "shape": [
            40
          ],
          "dtype": "float32"
        },
        {
          "name": "batch_normalization_4/moving_mean",
          "shape": [
            48
          ],
          "dtype": "float32"
        },
        {
          "name": "batch_normalization_4/moving_variance",
          "shape": [
            48
          ],
          "dtype": "float32"
        },
        {
          "name": "batch_normalization_5/moving_mean",
          "shape": [
            56
          ],
          "dtype": "float32"
        },
        {
          "name": "batch_normalization_5/moving_variance",
          "shape": [
            56
          ],
          "dtype": "float32"
        },
        {
          "name": "batch_normalization_6/moving_mean",
          "shape": [
            64
          ],
          "dtype": "float32"
        },
        {
          "name": "batch_normalization_6/moving_variance",
          "shape": [
            64
          ],
          "dtype": "float32"
        },
        {
          "name": "batch_normalization_7/moving_mean",
          "shape": [
            64
          ],
          "dtype": "float32"
        },
        {
          "name": "batch_normalization_7/moving_variance",
          "shape": [
            64
          ],
          "dtype": "float32"
        },
        {
          "name": "batch_normalization_8/moving_mean",
          "shape": [
            72
          ],
          "dtype": "float32"
        },
        {
          "name": "batch_normalization_8/moving_variance",
          "shape": [
            72
          ],
          "dtype": "float32"
        },
        {
          "name": "batch_normalization_9/moving_mean",
          "shape": [
            80
          ],
          "dtype": "float32"
        },
        {
          "name": "batch_normalization_9/moving_variance",
          "shape": [
            80
          ],
          "dtype": "float32"
        },
        {
          "name": "batch_normalization_10/moving_mean",
          "shape": [
            88
          ],
          "dtype": "float32"
        },
        {
          "name": "batch_normalization_10/moving_variance",
          "shape": [
            88
          ],
          "dtype": "float32"
        },
        {
          "name": "batch_normalization_11/moving_mean",
          "shape": [
            96
          ],
          "dtype": "float32"
        },
        {
          "name": "batch_normalization_11/moving_variance",
          "shape": [
            96
          ],
          "dtype": "float32"
        },
        {
          "name": "batch_normalization_12/moving_mean",
          "shape": [
            104
          ],
          "dtype": "float32"
        },
        {
          "name": "batch_normalization_12/moving_variance",
          "shape": [
            104
          ],
          "dtype": "float32"
        },
        {
          "name": "batch_normalization_13/moving_mean",
          "shape": [
            112
          ],
          "dtype": "float32"
        },
        {
          "name": "batch_normalization_13/moving_variance",
          "shape": [
            112
          ],
          "dtype": "float32"
        },
        {
          "name": "batch_normalization_14/moving_mean",
          "shape": [
            112
          ],
          "dtype": "float32"
        },
        {
          "name": "batch_normalization_14/moving_variance",
          "shape": [
            112
          ],
          "dtype": "float32"
        },
        {
          "name": "batch_normalization_15/moving_mean",
          "shape": [
            120
          ],
          "dtype": "float32"
        },
        {
          "name": "batch_normalization_15/moving_variance",
          "shape": [
            120
          ],
          "dtype": "float32"
        },
        {
          "name": "batch_normalization_16/moving_mean",
          "shape": [
            128
          ],
          "dtype": "float32"
        },
        {
          "name": "batch_normalization_16/moving_variance",
          "shape": [
            128
          ],
          "dtype": "float32"
        },
        {
          "name": "batch_normalization_17/moving_mean",
          "shape": [
            136
          ],
          "dtype": "float32"
        },
        {
          "name": "batch_normalization_17/moving_variance",
          "shape": [
            136
          ],
          "dtype": "float32"
        },
        {
          "name": "batch_normalization_18/moving_mean",
          "shape": [
            144
          ],
          "dtype": "float32"
        },
        {
          "name": "batch_normalization_18/moving_variance",
          "shape": [
            144
          ],
          "dtype": "float32"
        },
        {
          "name": "batch_normalization_19/moving_mean",
          "shape": [
            152
          ],
          "dtype": "float32"
        },
        {
          "name": "batch_normalization_19/moving_variance",
          "shape": [
            152
          ],
          "dtype": "float32"
        },
        {
          "name": "batch_normalization_20/moving_mean",
          "shape": [
            160
          ],
          "dtype": "float32"
        },
        {
          "name": "batch_normalization_20/moving_variance",
          "shape": [
            160
          ],
          "dtype": "float32"
        },
        {
          "name": "batch_normalization_21/moving_mean",
          "shape": [
            160
          ],
          "dtype": "float32"
        },
        {
          "name": "batch_normalization_21/moving_variance",
          "shape": [
            160
          ],
          "dtype": "float32"
        },
        {
          "name": "batch_normalization_22/moving_mean",
          "shape": [
            168
          ],
          "dtype": "float32"
        },
        {
          "name": "batch_normalization_22/moving_variance",
          "shape": [
            168
          ],
          "dtype": "float32"
        },
        {
          "name": "batch_normalization_23/moving_mean",
          "shape": [
            176
          ],
          "dtype": "float32"
        },
        {
          "name": "batch_normalization_23/moving_variance",
          "shape": [
            176
          ],
          "dtype": "float32"
        },
        {
          "name": "batch_normalization_24/moving_mean",
          "shape": [
            184
          ],
          "dtype": "float32"
        },
        {
          "name": "batch_normalization_24/moving_variance",
          "shape": [
            184
          ],
          "dtype": "float32"
        },
        {
          "name": "batch_normalization_25/moving_mean",
          "shape": [
            192
          ],
          "dtype": "float32"
        },
        {
          "name": "batch_normalization_25/moving_variance",
          "shape": [
            192
          ],
          "dtype": "float32"
        },
        {
          "name": "batch_normalization_26/moving_mean",
          "shape": [
            200
          ],
          "dtype": "float32"
        },
        {
          "name": "batch_normalization_26/moving_variance",
          "shape": [
            200
          ],
          "dtype": "float32"
        },
        {
          "name": "batch_normalization_27/moving_mean",
          "shape": [
            208
          ],
          "dtype": "float32"
        },
        {
          "name": "batch_normalization_27/moving_variance",
          "shape": [
            208
          ],
          "dtype": "float32"
        },
        {
          "name": "batch_normalization_28/moving_mean",
          "shape": [
            208
          ],
          "dtype": "float32"
        },
        {
          "name": "batch_normalization_28/moving_variance",
          "shape": [
            208
          ],
          "dtype": "float32"
        },
        {
          "name": "batch_normalization_29/moving_mean",
          "shape": [
            216
          ],
          "dtype": "float32"
        },
        {
          "name": "batch_normalization_29/moving_variance",
          "shape": [
            216
          ],
          "dtype": "float32"
        },
        {
          "name": "batch_normalization_30/moving_mean",
          "shape": [
            224
          ],
          "dtype": "float32"
        },
        {
          "name": "batch_normalization_30/moving_variance",
          "shape": [
            224
          ],
          "dtype": "float32"
        },
        {
          "name": "batch_normalization_31/moving_mean",
          "shape": [
            232
          ],
          "dtype": "float32"
        },
        {
          "name": "batch_normalization_31/moving_variance",
          "shape": [
            232
          ],
          "dtype": "float32"
        },
        {
          "name": "batch_normalization_32/moving_mean",
          "shape": [
            240
          ],
          "dtype": "float32"
        },
        {
          "name": "batch_normalization_32/moving_variance",
          "shape": [
            240
          ],
          "dtype": "float32"
        },
        {
          "name": "batch_normalization_33/moving_mean",
          "shape": [
            248
          ],
          "dtype": "float32"
        },
        {
          "name": "batch_normalization_33/moving_variance",
          "shape": [
            248
          ],
          "dtype": "float32"
        },
        {
          "name": "batch_normalization_34/moving_mean",
          "shape": [
            256
          ],
          "dtype": "float32"
        },
        {
          "name": "batch_normalization_34/moving_variance",
          "shape": [
            256
          ],
          "dtype": "float32"
        }
      ]
    }
  ]
}